plugins/main/src/androidTest/resources/glucose_model.tflite (tflite, 245580 bytes, 7 tensors)

sequential_2/dense_7/MatMul;sequential_2/dense_7/BiasAdd f4 [12]
-0.21301873 -0.25156656 -0.19183457 -0.16161114 -0.16125509 -0.12754759 -0.12232073 -0.10441135
-0.068237975 -0.007732969 0.00086225185 0.06631303
00000000: 9521 5abe 55cd 80be 4870 44be 647d 25be
00000010: 0e20 25be d69b 02be 4a83 fabd 9ed5 d5bd
00000020: 5ac0 8bbd d864 fdbb be08 623a 20cf 873d

sequential_2/normalization_2/truediv;sequential_2/normalization_2/Sqrt f4 [1, 159]
0.14465018 0.14262497 0.095776066 0.8854449 0.90292424 0.8762582 0.87182504 0.8992002
0.9243528 0.91527677 0.89936316 0.89674824 0.92114437 0.9366803 0.9304571 0.92011505
0.89879566 0.90741706 0.91597193 0.92889625 0.92573667 0.92018354 0.9207982 0.9306857
0.9381351 0.9380942 0.94831973 10.051916 9.652739 10.452673 10.6269655 10.379358
10.075234 10.310501 10.509974 10.155651 10.111244 10.478935 10.426261 10.12618
10.774252 10.448486 10.715324 10.447252 10.488278 10.909534 10.943594 10.628334
10.660273 11.01885 10.402094 0.5894639 0.5919807 0.59482586 0.59773535 0.60070634
0.6035496 0.6065831 0.60938704 0.6117636 0.6133078 0.6131367 0.61138535 0.6081489
0.6043436 0.6007134 0.5980154 0.59645003 0.59533817 0.5939777 0.59190863 0.588815
0.5850363 0.58146584 0.5791238 0.57811654 0.57806087 0.57829285 0.5785115 0.5787479
0.57913923 0.5800223 0.5814719 0.58335686 0.5855963 0.58835447 0.59179723 0.06845153
0.06801731 0.067536965 0.0672972 0.067368336 0.06770833 0.06808293 0.06811978 0.067542166
0.066435784 0.06523145 0.064338416 0.06404881 0.06450853 0.065646134 0.0671197 0.068399906
0.06907079 0.0691121 0.068826385 0.06860059 0.06869117 0.06906953 0.069623716 0.07019185
0.070534155 0.07055312 0.07024505 0.069816545 0.06953076 0.06934474 0.06915965 0.069096
0.06929744 0.0696661 0.069908164 0.054732688 0.05426333 0.05335515 0.053562574 0.053806644
0.053981736 0.053015873 0.05323014 0.05400831 0.054240823 0.053271838 0.052716613 0.0526094
0.051128943 0.050601535 0.050659005 0.05102815 0.051155373 0.051514987 0.05174222 0.051483013
0.051302876 0.051014353 0.051102813 0.05161636 0.050949506 0.05038774 0.051265676 0.052597433
0.053356722 0.05423716 0.054609977 0.053721353 0.053221174 0.053586297 0.053806048
00000000: 2d1f 143e 480c 123e 3e26 c43d 84ac 623f
00000010: 0b26 673f 7552 603f ed2f 5f3f fc31 663f
00000020: 63a2 6c3f 944f 6a3f aa3c 663f 4b91 653f
00000030: 1ed0 6b3f 48ca 6f3f 7032 6e3f a98c 6b3f
00000040: 7917 663f 7c4c 683f 237d 6a3f 25cc 6d3f
00000050: 14fd 6c3f 2691 6b3f 6eb9 6b3f 6b41 6e3f
00000060: 9f29 703f f126 703f 15c5 723f a6d4 2041
00000070: 9e71 1a41 263e 2741 0d08 2a41 da11 2641
00000080: 2934 2141 d0f7 2441 da28 2841 8c7d 2241
00000090: a8c7 2141 b8a9 2741 f7d1 2641 d504 2241
000000a0: 5663 2c41 002d 2741 f871 2b41 f227 2741
000000b0: fdcf 2741 748d 2e41 f618 2f41 a80d 2a41
000000c0: 7a90 2a41 364d 3041 fa6e 2641 1be7 163f
000000d0: 0c8c 173f 8246 183f 2f05 193f e4c7 193f
000000e0: 3a82 1a3f 0849 1b3f ca00 1c3f 8a9c 1c3f
000000f0: bd01 1d3f 87f6 1c3f c083 1c3f a5af 1b3f
00000100: 43b6 1a3f 5ac8 193f 8a17 193f f3b0 183f
00000110: 1568 183f ec0e 183f 5387 173f 94bc 163f
00000120: f0c4 153f f2da 143f 7541 143f 72ff 133f
00000130: ccfb 133f 000b 143f 5419 143f d328 143f
00000140: 7842 143f 577c 143f 58db 143f e056 153f
00000150: a4e9 153f 669e 163f 0680 173f 5130 8c3d
00000160: a94c 8b3d d250 8a3d 1dd3 893d 69f8 893d
00000170: aaaa 8a3d 106f 8b3d 6282 8b3d 8c53 8a3d
00000180: 7c0f 883d 1198 853d dcc3 833d 062c 833d
00000190: 0c1d 843d 7b71 863d 0e76 893d 4015 8c3d
000001a0: fd74 8d3d a58a 8d3d d9f4 8c3d 777e 8c3d
000001b0: f5ad 8c3d 5374 8d3d e196 8e3d bfc0 8f3d
000001c0: 3674 903d 277e 903d a3dc 8f3d fafb 8e3d
000001d0: 2566 8e3d 9d04 8e3d 93a3 8d3d 3482 8d3d
000001e0: d1eb 8d3d 1aad 8e3d 032c 8f3d 622f 603d
000001f0: 3a43 5e3d ee8a 5a3d 6e64 5b3d 5b64 5c3d
00000200: f41b 5d3d 2c27 593d d907 5a3d d137 5d3d
00000210: a02b 5e3d 9233 5a3d 60ed 573d f47c 573d
00000220: 956c 513d 8e43 4f3d d17f 4f3d e502 513d
00000230: 4c88 513d 6101 533d a6ef 533d dadf 523d
00000240: f722 523d 6df4 503d 2f51 513d ad6b 533d
00000250: 6eb0 503d 6063 4e3d f5fb 513d 6870 573d
00000260: 948c 5a3d c927 5e3d b6ae 5f3d ec0a 5c3d
00000270: 72fe 593d 4e7d 5b3d bb63 5c3d

Const_1 f4 [1, 159]
10.537987 2.911628 6.191731 0.0069049234 0.02504401 0.024977153 0.028516434 0.029540919
0.02665646 0.028830765 0.025403908 0.015611427 0.00035198784 -0.016754802 -0.04058281 -0.05404903
-0.057226207 -0.059000697 -0.051445745 -0.053388484 -0.05983287 -0.041170195 -0.015393022 -0.017195463
-0.018587163 -0.012600866 -0.022299513 0.004867761 0.0018072226 0.00034724304 0.00045637635 -0.00018599733
-7.1015966e-05 -0.00012525574 -0.0013219339 -0.0025051923 -0.0032366223 -0.0040934808 -0.003729423 -0.0016643383
-0.00049516495 0.0005780431 0.00056122005 -0.0008387114 0.0012218272 0.004443986 0.0023974748 -0.0003194146
0.00045945897 -0.00037123598 -0.0018433763 1.8941787 1.8943931 1.8951856 1.897074 1.8990093
1.9012709 1.9035965 1.9064366 1.9102222 1.9145806 1.9188505 1.9226946 1.9251461
1.9263844 1.9268475 1.9270453 1.927403 1.9277389 1.9280629 1.9275486 1.9253368
1.9211832 1.9149115 1.9080949 1.9015738 1.8967214 1.8926913 1.8900213 1.8879651
1.8856027 1.8832408 1.880896 1.8776468 1.8732883 1.8684895 1.8633784 7.923223
7.978475 8.020337 8.046627 8.068827 8.115483 8.200697 8.319268 8.44017
8.533002 8.577066 8.555849 8.463169 8.323762 8.176882 8.055138 7.963454
7.893859 7.8316245 7.759713 7.6764674 7.588003 7.4965253 7.4183316 7.374336
7.371474 7.403058 7.447282 7.4895387 7.5310283 7.5579524 7.5522704 7.515492
7.4748044 7.4575577 7.473305 61.99395 61.655304 61.44983 61.34509 61.2939
61.23782 61.450157 61.1968 61.040718 61.108192 61.26151 61.390957 61.52425
61.668835 61.506416 61.360718 61.330322 61.297993 61.535557 61.25734 61.125763
61.193203 61.324333 61.3753 61.387215 61.15619 61.055214 60.897373 60.756973
60.878513 60.913437 60.96517 61.0611 61.22131 61.436844 61.54508
00000000: 989b 2841 1d58 3a40 a922 c640 b242 e23b
00000010: 1829 cd3c e39c cc3c 4c9b e93c ccff f13c
00000020: a65e da3c 7f2e ec3c db1b d03c 12c7 7f3c
00000030: 028b b839 5e41 89bc 293a 26bd 8462 5dbd
00000040: 0766 6abd b7aa 71bd c6b8 52bd e2ad 5abd
00000050: 5013 75bd 14a2 28bd 0433 7cbc 80dd 8cbc
00000060: 1b44 98bc dd73 4ebc 78ad b6bc bd81 9f3b
00000070: 54e0 ec3a 2c0e b639 cc45 ef39 4708 43b9
00000080: 68ee 94b8 1557 03b9 be44 adba 272e 24bb
00000090: 831d 54bb 9b22 86bb 5669 74bb ed25 daba
000000a0: f5cd 01ba d187 173a d71e 133a f8dc 5bba
000000b0: b825 a03a db9e 913b f41e 1d3b 1a77 a7b9
000000c0: 8ae3 f039 73a2 c2b9 729d f1ba 7374 f23f
000000d0: 797b f23f 7195 f23f 52d3 f23f bd12 f33f
000000e0: d85c f33f 0da9 f33f 1d06 f43f 2982 f43f
000000f0: fa10 f53f e59c f53f db1a f63f 306b f63f
00000100: c493 f63f f0a2 f63f 6ca9 f63f 24b5 f63f
00000110: 26c0 f63f c4ca f63f eab9 f63f 7071 f63f
00000120: 55e9 f53f d21b f53f 743c f43f c566 f33f
00000130: c4c7 f23f b543 f23f 38ec f13f d7a8 f13f
00000140: 6e5b f13f 090e f13f 33c1 f03f bb56 f03f
00000150: e9c7 ef3f aa2a ef3f 2f83 ee3f 0b8b fd40
00000160: ab4f ff40 4d53 0041 fcbe 0041 ea19 0141
00000170: 05d9 0141 0e36 0341 b91b 0541 f00a 0741
00000180: 2d87 0841 aa3b 0941 c2e4 0841 2469 0741
00000190: 212e 0541 82d4 0241 d8e1 0041 9dd4 fe40
000001a0: 7e9a fc40 ab9c fa40 924f f840 9fa5 f540
000001b0: ecd0 f240 89e3 ef40 f962 ed40 8ffa eb40
000001c0: 1de3 eb40 dae5 ec40 2250 ee40 4daa ef40
000001d0: 2ffe f040 bfda f140 33ac f140 e97e f040
000001e0: 9931 ef40 50a4 ee40 5125 ef40 cef9 7742
000001f0: 089f 7642 a0cc 7542 5f61 7542 f42c 7542
00000200: 87f3 7442 f6cc 7542 86c9 7442 b229 7442
00000210: ca6e 7442 c90b 7542 5790 7542 d518 7642
00000220: e3ac 7642 9206 7642 6071 7542 4052 7542
00000230: 2531 7542 6924 7642 8407 7542 c880 7442
00000240: d7c5 7442 1e4c 7542 4f80 7542 828c 7542
00000250: f09f 7442 8a38 7442 e996 7342 2407 7342
00000260: 9983 7342 5ca7 7342 56dc 7342 913e 7442
00000270: 9fe2 7442 54bf 7542 292e 7642

sequential_2/dense_5/BiasAdd/ReadVariableOp f4 [300]
-0.04816864 -0.0020845153 0.023141626 0.12623703 0.06158653 0.13616732 0.00020530078 -0.092183135
-0.0718144 -0.04924347 -0.054007504 0.047093164 -0.029270982 -0.114299 0.036867067 -0.034509573
0.12955718 0.13451952 0.06833627 -0.014119629 -0.12514155 -0.10802547 0.04770929 -0.014726058
-0.1489049 -0.04604694 0.09058479 0.15051304 -0.0040598367 -0.17536925 -0.058720883 0.055705976
0.04486341 0.03450344 0.15832537 0.00012951199 -0.01170665 -0.10542486 -0.18772186 -0.016060203
0.115740195 0.050376527 -0.14437436 -0.23319274 -0.07955597 0.010410613 0.059097186 -0.0579022
0.046338797 0.12252753 -0.21120013 -0.14416479 -0.10064326 -0.13128012 -0.18646656 0.19992064
0.0014695042 0.097691044 0.094793126 0.03218861 0.062182892 0.11354425 0.010179355 -0.04810245
0.011123806 -0.09628378 0.30210137 0.14404283 -0.068137474 0.07054606 0.037345845 -0.053584818
-0.13358669 0.033980258 0.098734505 -0.054007262 -0.04852843 -0.050746087 -0.08378034 -0.062660895
-0.007151538 -0.09289623 0.005897125 -0.08348837 0.099889755 0.018049695 -0.18018359 -0.08857239
-0.11710525 0.008603602 -0.0440043 0.0046500415 -0.10888962 -0.038424302 -0.12948895 -0.1457676
0.0700116 -0.06621494 -0.069975816 -0.11034158 0.10482566 0.11204297 -0.008087236 0.1606051
-0.17522639 0.067061424 -0.03777484 -0.020890437 0.039610956 0.1312435 -0.13259372 0.0048433314
-0.16926439 0.11722169 0.114881545 0.016528986 -0.041521814 -0.103766456 -0.11957285 -0.08305199
0.022880116 -0.08390956 0.21191514 -0.016738886 0.007294969 -0.07695792 0.09444401 0.030335858
0.050475515 -0.2352537 0.04564545 -0.004644805 -0.21209368 0.10246513 0.10739833 -0.049917556
0.12992154 -0.09829371 -0.021313246 -0.012959173 0.051783465 -0.20523633 0.037335444 0.03913918
0.12888423 0.12864625 0.07329741 0.11429635 -0.089193165 -0.029153448 0.05864527 0.05510719
0.017368408 -0.09641432 -0.00039747654 -0.04112892 -0.048736293 -0.025882453 0.09032121 -0.05186587
0.030274818 0.0019244046 0.004385983 0.025020456 -0.19990505 0.048048347 0.06398613 0.00079262693
0.069038026 0.13450572 0.015283387 -0.118757516 -0.029731655 0.03407186 -0.053451005 0.14633569
0.08244562 -0.010552262 0.18616769 -0.16166602 -0.047112517 -0.06367136 0.19132586 -0.015885191
-0.05917407 -0.14102347 0.020277398 0.008459608 -0.09253998 0.047540635 0.093003616 -0.10607478
-0.03466733 -0.1844881 0.058460742 0.12327825 0.20559892 0.051204726 -0.030268587 -0.13129275
-0.111887895 0.056653854 0.16741452 -0.014507095 -0.061525762 0.05892096 0.0720366 0.0786624
-0.09808691 0.04400374 -0.085746594 0.16695918 -0.014167912 -0.01337128 0.09956443 -0.06391239
0.056927335 -0.033389293 0.012003074 0.13655148 -0.079405315 0.08109085 -0.13524836 0.05666539
0.091567315 -0.047699686 -0.15341768 0.14687787 0.07958756 0.059266694 0.049407255 -0.079003215
0.10826084 -0.05336058 0.10257117 0.0638611 -0.095835 0.050013054 -0.08838649 -0.027161833
0.10963606 0.04698635 0.12943952 0.0601791 0.089584485 0.06691723 0.1839848 -0.09429693
0.059019085 -0.1574464 0.1331339 0.19415079 -0.007001833 0.053343188 0.085893355 0.010133593
00000000: 7b4c 45bd 5d9c 08bb 8293 bd3c 4844 013e
00000010: 2842 7c3d 726f 0b3e 0246 5739 83ca bcbd
00000020: 6e13 93bd 85b3 49bd f936 5dbd c3e4 403d
00000030: b3c9 efbc 9815 eabd ec01 173d e959 0dbd
00000040: a3aa 043e 7cbf 093e e3f3 8b3d 0456 67bc
00000050: 1b25 00be 753c ddbd d16a 433d 9045 71bc
00000060: 877a 18be b79b 3cbd 8584 b93d 1720 1a3e
00000070: 6108 85bb ff93 33be 4f85 70bd f32b 643d
00000080: b2c2 373d 7b53 0d3d 0c20 223e 9ccd 0739
00000090: 40cd 3fbc fde8 d7bd 293a 40be b090 83bc
000000a0: 3209 ed3d 9e57 4e3d dfd6 13be 14ca 6ebe
000000b0: 3eee a2bd 4791 2a3c e40f 723d db2a 6dbd
000000c0: c0cd 3d3d b7ef fa3d d944 58be ef9f 13be
000000d0: 0e1e cebd 4c6e 06be 17f1 3ebe ffb7 4c3e
000000e0: 619c c03a 3e12 c83d e622 c23d 34d8 033d
000000f0: 7db3 7e3d e389 e83d 4fc7 263c 1307 45bd
00000100: a040 363c 6e30 c5bd 08ad 9a3e f77f 133e
00000110: a98b 8bbd 747a 903d f5f7 183d c17b 5bbd
00000120: f3ca 08be e22e 0b3d 5135 ca3d b836 5dbd
00000130: bfc5 46bd 21db 4fbd 0795 abbd 5b54 80bd
00000140: 7357 eabb 6140 bebd ac3c c13b f3fb aabd
00000150: 0093 cc3d f4dc 933c 0c82 38be 7165 b5bd
00000160: e1d4 efbd 1ff6 0c3c da3d 34bd 605f 983b
00000170: 8501 dfbd cd62 1dbd c098 04be 1a44 15be
00000180: 3e62 8f3d b39b 87bd 7b4f 8fbd c4fa e1bd
00000190: d6ae d63d c976 e53d 5480 04bc aa75 243e
000001a0: 8c6e 33be 8057 893d cab9 1abd 6c22 abbc
000001b0: 193f 223d b264 063e a6c6 07be cfb4 9e3b
000001c0: a553 2dbe ed11 f03d 0447 eb3d cc67 873c
000001d0: c712 2abd 8283 d4bd 9ce2 f4bd 2917 aabd
000001e0: 156f bb3c c7d8 abbd 4800 593e fd1f 89bc
000001f0: a30a ef3b 1d9c 9dbd dc6b c13d e882 f83c
00000200: 6abf 4e3d 59e6 70be b9f6 3a3d 7333 98bb
00000210: 162f 59be 3dd9 d13d a8f3 db3d 5a76 4cbd
00000220: 270a 053e 364e c9bd 1e99 aebc b652 54bc
00000230: e61a 543d 7929 52be 0ded 183d 6850 203d
00000240: 3afa 033e d8bb 033e f41c 963d 3414 ea3d
00000250: e8aa b6bd 36d3 eebc 0636 703d 14b8 613d
00000260: 3148 8e3c df74 c5bd 6664 d0b9 cc76 28bd
00000270: b59f 47bd 7007 d4bc 54fa b83d 4e71 54bd
00000280: e502 f83c 4e3c fc3a 4bb8 8f3b b3f7 cc3c
00000290: e9b3 4cbe 58ce 443d 290b 833d 4bc8 4f3a
000002a0: cf63 8d3d debb 093e 2c67 7a3c 2437 f3bd
000002b0: cd8f f3bc ef8e 0b3d 71ef 5abd 06d9 153e
000002c0: 40d9 a83d 65e3 2cbc bea2 3e3e c78b 25be
000002d0: 0ef9 40bd 2166 82bd edea 433e a921 82bc
000002e0: 8260 72bd 7568 10be c91c a63c 2b9a 0a3c
000002f0: 9a85 bdbd f8b9 423d ae78 be3d bc3d d9bd
00000300: 55ff 0dbd 73ea 3cbe 8874 6f3d 4f79 fc3d
00000310: 8688 523e 0cbc 513d d4f5 f7bc 9b71 06be
00000320: 7b25 e5bd df0d 683d b66e 2b3e 2baf 6dbc
00000330: 7002 7cbd 1b57 713d ed87 933d c119 a13d
00000340: cae1 c8bd 443d 343d e99b afbd 59f7 2a3e
00000350: 8820 68bc 3713 5bbc 70e8 cb3d 80e4 82bd
00000360: a32c 693d 36c3 08bd 8ba8 443c 27d4 0b3e
00000370: 419f a2bd f612 a63d 8c7e 0abe f819 683d
00000380: a587 bb3d bf60 43bd 8619 1dbe 2767 163e
00000390: cdfe a23d a2c1 723d 435f 4a3d 70cc a1bd
000003a0: dcb7 dd3d a090 5abd d510 d23d 9cc9 823d
000003b0: 2445 c4bd 7dda 4c3d fa03 b5bd 7e82 debc
000003c0: df88 e03d c274 403d cb8b 043e 5c7e 763d
000003d0: 1278 b73d e70b 893d 8366 3c3e c01e c1bd
000003e0: ffbd 713d a139 21be 4154 083e 77cf 463e
000003f0: a26f e5bb 637e 5a3d dbe8 af3d 5f07 263c

sequential_2/dense_5/MatMul1 f4 [300, 159]
-0.16504699 0.032617528 -0.041899886 0.01106503 0.03203988 -0.097439416 -0.033610012 0.010408155
-0.03801826 0.08308167 0.03304877 -0.059958264 -0.040577646 0.018835157 0.053660877 -0.055141464
0.13122992 -0.032740247 -0.0069759 -0.0010889752 -0.041530177 -0.04889217 -0.09171491 -0.0151733635
-0.046410765 -0.12596644 -0.118149646 0.09990219 -0.19323006 -0.092571445 0.110838816 -0.049592286
0.02480771 0.081980094 0.10199643 -0.005983648 0.08213616 0.018780796 -0.11208776 0.17590232
0.04729122 -0.053124562 0.08070374 -0.005049706 0.018403405 0.0023505245 -0.07518489 -0.04985831
-0.288763 0.005046259 -0.42227787 0.04155287 0.016610224 0.07337062 -0.035009053 0.17546284
0.19317867 0.056125518 0.021875083 0.12729195 -0.062642075 -0.035216108 -0.28939518 -0.122036114
-0.0619106 0.048261907 0.019495094 0.12745206 0.13120462 0.063719034 -0.0783467 0.042200554
0.029857783 -0.15010919 0.046447907 0.022113744 0.08466358 0.03861151 -0.04016292 -0.039889857
0.008986144 0.06845396 0.087651156 0.048050135 0.15019706 0.011116668 -0.14887421 0.16534528
0.024543554 -0.049525425 -0.13522337 -0.05938106 -0.14327367 0.22452857 0.25076467 0.12074002
-0.023853442 -0.11193525 -0.102783 -0.00732073 0.14773391 0.012285602 -0.01922611 -0.06689299
-0.011323636 0.061300594 0.01038463 0.10993533 0.035296272 0.0028655855 0.12769328 -0.084017426
0.036671925 0.05610495 -0.121356644 -0.054865748 -0.11847383 -0.04803065 0.007481171 0.1293002
-0.013350248 -0.001986197 -0.15344758 -0.07376242 0.06370399 -0.4434767 -0.027312573 0.10772664
0.11772975 -0.019992389 -0.11629346 0.053721096 0.13522385 0.036939703 0.064201795 0.08398173
-0.013633381 -0.067565076 0.14009304 0.15580449 -0.0891388 -0.031018827 -0.07014395 -0.07025309
0.20334013 0.017881004 0.20141973 -0.033465363 -0.14501505 0.055667523 -0.06154721 -0.047555123
0.07387828 -0.091845974 0.052937154 0.17595166 0.10714238 0.0928076 -0.09844656 0.029639643
0.121394195 -0.1750602 -0.028549168 -0.13974898 0.018691426 -0.06316427 -0.11990949 -0.118282184
-0.01866084 -0.14119086 0.0827241 -0.0053241826 -0.1058389 0.0672184 -0.010460775 -0.09736588
0.111298 -0.08536779 -0.114391565 -0.12653366 -0.18156841 0.023577442 -0.13215962 -0.09495299
-0.03953335 -0.0736656 -0.10010963 0.14458387 -0.06881929 -0.07026759 0.09263333 0.07414648
-0.025015531 -0.043452356 0.07182839 -0.00561317 -0.03189565 -0.03992273 -0.025915386 -0.0922847
0.041043676 -0.20580868 0.04421504 -0.0124785425 -0.0089278035 -0.14126058 -0.0850642 -0.10237168
0.022577502 -0.35120833 0.060859136 0.09534437 -0.017221114 -0.07563825 -0.1439401 -0.08203333
-0.063028894 0.035323445 -0.00063309714 -0.069730364 -0.022103682 0.17961454 0.10660813 -0.035218675
0.0020843428 -0.10316448 -0.12413171 -0.11999773 0.01769286 0.030268366 0.03922924 0.07204217
0.057667933 0.0386848 0.037401702 -0.043866474 -0.06286888 -0.068812795 -0.0017184042 0.11127341
0.17882472 0.23287326 0.17722872 -0.03253931 -0.22587633 -0.29647732 0.16386415 -0.014562128
-0.13136767 0.0874547 -0.016125828 0.1483294 0.04163859 -0.19470677 -0.20181449 0.0043810993
00000000: 1402 29be f599 053d 379f 2bbd 194a 353c
00000010: 403c 033d 518e c7bd a7aa 09bd f786 2a3c
00000020: 09b9 1bbd b926 aa3d 265e 073d cc96 75bd
00000030: bf34 26bd 304c 9a3c 82cb 5b3d 04dc 61bd
00000040: 2361 063e a31a 06bd 1796 e4bb f2bb 8eba
00000050: 8c1b 2abd 2843 48bd 07d5 bbbd b399 78bc
00000060: 3719 3ebd 59fd 00be 71f8 f1bd 8599 cc3d
00000070: 1ade 45be 1996 bdbd 76ff e23d 4821 4bbd
00000080: 8a39 cb3c 2ee5 a73d 81e3 d03d 7a12 c4bb
00000090: 0137 a83d 2fda 993c 448e e5bd bd1f 343e
000000a0: 70b4 413d 2499 59bd 0148 a53d 0178 a5bb
000000b0: bdc2 963c 420b 1a3b 89fa 99bd 3a38 4cbd
000000c0: bed8 93be 175b a53b ce34 d8be 5833 2a3d
000000d0: 2a12 883c 5643 963d a765 0fbd 88ac 333e
000000e0: a1d0 453e dfe3 653d 6033 b33c d258 023e
000000f0: 7d4a 80bd c43e 10bd 9b2b 94be 12ee f9bd
00000100: f895 7dbd 47ae 453d 2db4 9f3c cb82 023e
00000110: 815a 063e 207f 823d 3c74 a0bd 7dda 2c3d
00000120: 4f98 f43c 39b6 19be 2940 3e3d e227 b53c
00000130: 1964 ad3d 1a27 1e3d e081 24bd 8c63 23bd
00000140: 9f3a 133c 9731 8c3d 7382 b33d 38d0 443d
00000150: 42cd 193e af22 363c 7b72 18be 4650 293e
00000160: 900f c93c 2cdb 4abd ff77 0abe 8e39 73bd
00000170: 55b6 12be d1ea 653e 3a64 803e 8b46 f73d
00000180: 4b68 c3bc 4f3e e5bd e57f d2bd bce2 efbb
00000190: 8f47 173e 8d49 493c 1380 9dbc 31ff 88bd
000001a0: c686 39bc 5516 7b3d 4c24 2a3c c625 e13d
000001b0: d392 103d 8ccc 3b3b 07c2 023e 5411 acbd
000001c0: 4d35 163d 4ece 653d d589 f8bd e8ba 60bd
000001d0: 68a2 f2bd c9bb 44bd 9c24 f53b 4667 043e
000001e0: 00bb 5abc db2a 02bb 5d21 1dbe c010 97bd
000001f0: 3d77 823d 610f e3be 9ebe dfbc c99f dc3d
00000200: 4c1c f13d 14c7 a3bc 442b eebd a70a 5c3d
00000210: 1f78 0a3e 164e 173d 3b7c 833d 9dfe ab3d
00000220: 8b5e 5fbc 8f5f 8abd 8d74 0f3e 368b 1f3e
00000230: 678e b6bd 321b febc a2a7 8fbd dae0 8fbd
00000240: 6538 503e 2f7b 923c f940 4e3e fa12 09bd
00000250: d37e 14be a103 643d ed18 7cbd 29c9 42bd
00000260: 7f4d 973d be19 bcbd a1d4 583d ac2c 343e
00000270: 776d db3d e911 be3d 5a9e c9bd d6ce f23c
00000280: 859d f83d fb42 33be f2df e9bc 5b1a 0fbe
00000290: c31e 993c 455c 81bd 1b93 f5bd ee3d f2bd
000002a0: 9ede 98bc 5694 10be 416b a93d 7b76 aebb
000002b0: 11c2 d8bd cda9 893d ac63 2bbc c367 c7bd
000002c0: 35f0 e33d 4fd5 aebd 2046 eabd 0a92 01be
000002d0: 12ed 39be 7b25 c13c da54 07be b776 c2bd
000002e0: b9ed 21bd fddd 96bd 4706 cdbd cb0d 143e
000002f0: 21f1 8cbd 74e8 8fbd 8bb6 bd3d 1cda 973d
00000300: 5fed ccbc 19fb 31bd c31a 933d afee b7bb
00000310: 03a5 02bd 0486 23bd 814c d4bc c3ff bcbd
00000320: 6a1d 283d 83bf 52be d41a 353d cd72 4cbc
00000330: ec45 12bc 9da6 10be 2436 aebd 3ea8 d1bd
00000340: 74f4 b83c 94d1 b3be 6e47 793d e943 c33d
00000350: 4b13 8dbc 3ae8 9abd 0965 13be 1701 a8bd
00000360: 4b15 81bd 51af 103d 6ef6 25ba cbce 8ebd
00000370: c812 b5bc e0ec 373e 5d55 da3d 7541 10bd
00000380: 7899 083b e647 d3bd c438 febd 5fc1 f5bd
00000390: 9ef0 903c 5df5 f73c d7ae 203d d88a 933d
000003a0: 3635 6c3d f473 1e3d 8732 193d 55ad 33bd
000003b0: 66c1 80bd b9ed 8cbd 143c e1ba 50e3 e33d
000003c0: d41d 373e 5476 6e3e 727b 353e f147 05bd
000003d0: 204c 67be e0cb 97be 01cc 273e fe95 6ebc
000003e0: 3f85 06be 731b b33d 501a 84bc aae3 173e
000003f0: 3a8d 2a3d 3661 47be 75a8 4ebe 538f 8f3b

sequential_2/dense_6/MatMul f4 [40, 300]
-0.065618604 0.03490409 0.011971226 -0.020205555 -0.0003961338 0.010026894 -0.049375538 -0.04429016
0.0657855 0.12030188 -0.04377391 0.1404019 -0.0020574925 0.05793505 0.038116436 -0.09999533
-0.005871756 0.04638852 0.120154515 0.11669625 -0.03614915 -0.11158966 -0.024953563 -0.08466751
0.065115005 0.1229725 0.034154076 0.0182904 0.028632771 0.00013480155 0.06753361 0.02227302
0.07607066 -0.024386095 0.1404441 -0.047730792 0.017920027 0.07264558 0.045226168 0.018781679
-0.040251378 0.028267484 -0.09424819 0.08247878 0.049511347 -0.0013773098 -0.052540258 -0.001809241
0.054265164 -0.041017253 -0.0012964911 0.08468128 0.032428723 -0.07267223 0.03930242 -0.16515367
0.0867216 -0.05144411 -0.09734851 -0.038962394 0.004974234 -0.0031446433 -0.013392448 -0.04172784
0.019411322 0.09205405 0.0056407177 -0.07457908 0.08012096 -0.05141023 -0.0671797 0.04874523
-0.047658883 -0.0062391064 -0.065869346 0.01328622 -0.109603085 0.053396635 -0.10726528 0.027537987
0.072978795 0.26255333 -0.1072288 0.02943253 0.13193633 0.04120872 -0.032011975 0.055973165
-0.025690494 -0.013401159 -0.1190892 -0.07992078 0.035132457 0.075188644 0.025884515 0.029333157
-0.04552447 -0.001568068 0.07511363 -0.023622582 0.074557744 0.053688545 0.022067608 0.01958029
0.0036189514 0.07354453 0.00572533 0.008221505 -0.044979334 0.035636988 0.0070165633 -0.044401743
-0.060973834 -0.14227897 0.057611413 0.0022173147 0.019393334 -0.07002878 -0.03335961 -0.041223668
-0.07767533 -0.0938637 -0.03734183 0.011545433 -0.0889069 0.020489417 0.08529293 0.061907273
-0.028716968 -0.056124676 -0.043516606 -0.035319597 -0.09271386 -0.06584172 -0.0043833386 -0.074534245
0.06274005 0.12411834 0.07518537 -0.081523955 -0.022553055 -0.019885497 -0.11912614 -0.031590972
0.008560175 0.0002987532 -0.009188941 -0.0627286 0.031637985 -0.06722783 0.019854968 -0.05096674
0.015067954 0.043476995 -0.11065601 0.055612244 0.05170874 0.00059813284 -0.100121245 0.07073814
0.029052423 0.04561978 0.015022209 0.03428232 0.0941189 0.12402309 0.0022687025 0.008989676
-0.042653084 0.012221353 -0.021708304 0.1392825 -0.022327946 -0.10665177 0.029157188 0.036176343
0.03408421 -0.04729316 0.07417917 -0.1525948 -0.01611589 0.093057245 -0.07486649 0.012944209
-0.07514746 0.01019699 0.09458517 0.017716605 0.01596915 0.055711716 -0.08275231 -0.018371155
-0.06434681 -0.030141832 -0.077907294 0.08838711 -0.0454437 -0.025238961 0.00424835 0.026373686
0.16660888 -0.019067043 -0.001973771 0.0968202 -0.0053272187 0.048619047 -0.06903307 0.09845006
0.0023842219 0.022419648 0.08117908 -0.016297484 -0.03364845 0.005576254 -0.016679058 0.029034052
0.024867257 0.05759086 0.01729806 0.0015723443 0.16639267 0.060138203 -0.0010803082 0.013776591
0.0010721021 0.08618958 -0.03899014 -0.0018769668 0.11475721 0.06881007 -0.048500318 0.0030684185
-0.027655631 -0.06972673 0.008434583 0.07997687 -0.031219842 -0.13616464 0.057613794 -0.0015808159
0.06510871 0.11398786 0.043996755 0.07609139 -0.11227341 -0.02105926 -0.05429511 -0.05277502
0.11751873 -0.057592366 0.090661734 0.101440445 0.018180612 0.04665364 0.039695777 0.081069306
00000000: 0c63 86bd 97f7 0e3d f622 443c 1f86 a5bc
00000010: 2eb0 cfb9 d747 243c 013e 4abd 9969 35bd
00000020: 8cba 863d d560 f63d 454c 33bd 84c5 0f3e
00000030: ffd6 06bb 4e4d 6d3d fb1f 1c3d 5aca ccbd
00000040: dc67 c0bb e401 3e3d 9213 f63d 72fe ee3d
00000050: 2211 14bd 1f89 e4bd 6a6b ccbc 2966 adbd
00000060: 045b 853d 02d9 fb3d 25e5 0b3d c0d5 953c
00000070: 468f ea3c 8459 0d39 104f 8a3d e975 b63c
00000080: efca 9b3d 59c5 c7bc 94d0 0f3e 5d81 43bd
00000090: 05cd 923c 35c7 943d 133f 393d 09dc 993c
000000a0: a1de 24bd 3691 e73c 3205 c1bd a2ea a83d
000000b0: 69cc 4a3d d986 b4ba 7434 57bd 0e24 edba
000000c0: 2645 5e3d b501 28bd 06ef a9ba 616d ad3d
000000d0: fbd3 043d 2ed5 94bd 93fb 203d 0b1e 29be
000000e0: 189b b13d 0fb7 52bd a85e c7bd 0897 1fbd
000000f0: e6fe a23b 5c16 4ebb 006c 5bbc d0ea 2abd
00000100: 7e04 9f3c d586 bc3d c5d5 b83b ebbc 98bd
00000110: 7516 a43d 8993 52bd 8395 89bd 14a9 473d
00000120: f635 43bd 6b71 ccbb 82e6 86bd 72ae 593c
00000130: 9577 e0bd 6eb6 5a3d e6ad dbbd 5897 e13c
00000140: e875 953d 646d 863e c69a dbbd 7d1c f13c
00000150: 511a 073e 7aca 283d fd1e 03bd 1e44 653d
00000160: df74 d2bc 8990 5bbc 0ae5 f3bd 82ad a3bd
00000170: 0de7 0f3d 81fc 993d c30b d43c 174c f03c
00000180: de77 3abd a287 cdba 2dd5 993d 2584 c1bc
00000190: bbb1 983d 85e8 5b3d 21c7 b43c d866 a03c
000001a0: ee2b 6d3b 849e 963d 8d9b bb3b 7eb3 063c
000001b0: 403c 38bd 17f8 113d 33eb e53b 9ade 35bd
000001c0: b3bf 79bd 94b1 11be f2f9 6b3d 5e50 113b
000001d0: c5de 9e3c 406b 8fbd 16a4 08bd 26da 28bd
000001e0: 3e14 9fbd 9d3b c0bd bff3 18bd 0e29 3d3c
000001f0: d214 b6bd 6cd9 a73c 0fae ae3d 7b92 7d3d
00000200: d93f ebbc fde2 65bd 783e 32bd 48ab 10bd
00000210: c4e0 bdbd 06d8 86bd 1ca2 8fbb 69a5 98bd
00000220: db7d 803d c231 fe3d cafa 993d 08f6 a6bd
00000230: 2fc1 b8bc e9e6 a2bc 68f8 f3bd 8965 01bd
00000240: fa3f 0c3c faa1 9c39 368d 16bc da77 80bd
00000250: d596 013d bfae 89bd e3a6 a23c 80c2 50bd
00000260: 94df 763c ef14 323d 9e9f e2bd aac9 633d
00000270: 8bcc 533d 04cc 1c3a 5e0c cdbd 28df 903d
00000280: 59ff ed3c cedb 3a3d b61f 763c 9e6b 0c3d
00000290: 69c1 c03d d1ff fd3d 83ae 143b 6f49 133c
000002a0: 00b5 2ebd 123c 483c 9dd5 b1bc 12a0 0e3e
000002b0: 19e9 b6bc 3e6c dabd 0edb ee3c a52d 143d
000002c0: e29b 0b3d 79b6 41bd 40eb 973d d041 1cbe
000002d0: 7905 84bc cc94 be3d 9a53 99bd f313 543c
000002e0: e9e6 99bd 4711 273c dfb5 c13d 6a22 913c
000002f0: bcd1 823c f831 643d 0b7a a9bd 1b7f 96bc
00000300: 43c8 83bd 01ec f6bc dc8d 9fbd 4d04 b53d
00000310: 2c23 3abd f0c1 cebc be35 8b3b a10d d83c
00000320: 859b 2a3e 7d32 9cbc 625a 01bb ab49 c63d
00000330: f38f aebb c424 473d 3661 8dbd 2fa0 c93d
00000340: 9b40 1c3b 69a9 b73c 3841 a63d 4d82 85bc
00000350: f5d2 09bd 02b9 b63b 85a2 88bc d2d8 ed3c
00000360: 6bb6 cb3c 65e4 6b3d a9b4 8d3c 1f17 ce3a
00000370: d762 2a3e 7a53 763d 2199 8dba 36b7 613c
00000380: c785 8c3a 2a84 b03d 20b4 1fbd 8e04 f6ba
00000390: d405 eb3d 4bec 8c3d 45a8 46bd 8517 493b
000003a0: 108e e2bc e3cc 8ebd 3531 0a3c eaca a33d
000003b0: c1c0 ffbc be6e 0bbe 71fc 6b3d 6133 cfba
000003c0: b757 853d 7872 e93d f135 343d cdd5 9b3d
000003d0: 9aef e5bd 7884 acbc 8d64 5ebd 9f2a 58bd
000003e0: a9ad f03d f9e5 6bbd dcac b93d 02c0 cf3d
000003f0: 82ef 943c e317 3f3d 0a98 223d aa07 a63d

sequential_2/dense_7/MatMul f4 [12, 40]
-0.009944551 -0.00040751067 -0.001894691 0.007798633 0.00061995705 0.047869597 0.064890005 -0.024124352
0.018839065 -0.009453014 0.008103986 -0.0037729929 0.00048093082 0.026678389 -0.00040519927 -0.014406957
0.007768408 -0.004662283 0.015480186 -0.060673863 -0.007614169 -0.02428385 -0.039424006 0.027106185
0.00199431 0.008227143 0.0052612345 0.013927824 -0.047095437 -0.0056405263 0.02301355 -0.078274734
-0.011401011 0.08141103 0.0056225243 0.0021469626 0.00082365813 0.009581657 0.00858705 0.011462354
-0.008062456 2.9452125e-05 -0.013768046 0.002363447 -0.001299702 -0.015405059 0.023845535 -0.0010290875
0.01587198 0.008074077 -0.0018917493 0.0037747503 0.021695511 0.013901658 0.00037921523 -0.00254013
0.0062380936 -0.011355904 0.011115567 -0.07223517 -0.00027237527 -0.02039353 -0.039018102 0.057417635
-0.0036746103 -0.009968829 -0.00021967664 -0.042809233 0.024271587 0.012380197 -0.008703035 -0.100434735
0.000107094456 0.06391255 -0.0061385944 0.009139867 0.019851891 0.003361537 -0.0056990786 -0.017461633
0.01003113 0.023772974 0.009380592 -0.017830964 -0.012821242 -0.03086918 -0.0038016827 -0.0055411165
-0.014299997 0.010667967 -0.0032767432 -0.0057329093 -0.011255244 -0.0027525246 -0.0142476335 0.01814801
-0.0036716172 0.02718148 0.00679061 -0.061178673 0.017073343 -0.010986208 -0.0012239363 0.006758462
-0.0029777708 0.011602949 -0.008903192 -0.018197613 0.013299713 0.012368833 0.00997695 -0.04656233
0.008080434 0.086451285 0.00029678683 0.0055871676 -0.013321474 -0.008370397 0.007824924 -0.00078298675
-0.015907653 0.004427264 -0.007217959 0.022042833 0.0025633883 -0.031925943 -0.006208497 0.018932438
-0.0034423699 -0.008830582 -0.0011759448 0.005451789 -0.025305782 -0.030645506 -0.005058214 -0.0017045138
-0.0023711987 -0.0078030745 -0.009107222 -0.034179393 0.014417683 0.035786007 0.021348186 -0.020379737
0.0019171125 0.004213349 -0.008920352 0.0107882535 1.886427e-05 -0.012205833 -0.011764446 -0.012640626
-0.027082644 0.09459245 -0.007372425 0.0014418003 -0.004503418 -0.009117005 0.019044986 0.017028194
0.0103342 -0.005567773 -0.016970003 -0.0032358123 0.013855651 -0.026052184 -0.0052036815 0.02883263
-0.007669834 -0.0037990303 0.0024043776 0.007368612 0.0021082447 -0.017790912 0.009350261 0.001007754
-0.005547124 -0.02246218 0.0063777394 -0.030611748 -0.008065377 0.047092166 0.047340136 -0.0018062863
-0.017368605 0.015755853 0.0098657925 0.0026685672 0.0009860968 -0.008272026 0.006177818 0.008869761
-0.005448347 0.066442035 -0.0018967276 -0.003246065 0.0012140131 0.009374321 -0.0041000834 -0.00086747966
-0.020095676 -0.009740478 0.00049059524 0.011221856 -0.014065103 0.033852782 -0.015347492 -0.020015467
0.003440176 0.002866942 -0.019546406 0.0028794145 0.0012335418 -0.0034431566 -0.0032071816 0.00047163313
0.007769264 0.0048792097 -0.0036714452 -0.037247833 -0.0073508113 0.030402355 0.07323269 0.008100162
0.007478416 0.0048543112 0.01493481 0.018263811 -0.00041786037 -0.004363681 0.001516661 -0.001539552
0.004497526 0.014738113 0.00028911792 -0.027546877 -0.0022426909 0.0072824396 -0.009660955 -0.038388584
-0.01573306 -0.009699651 -0.011501347 0.010657821 0.004380252 0.030872127 -0.025215361 -0.0234246
0.0011130226 0.01152875 0.00779448 0.008604293 0.004970252 -0.0052096206 0.005165593 0.0039159786
00000000: 78ee 22bc 28a7 d5b9 4857 f8ba ad8b ff3b
00000010: 9d84 223a e912 443d 0de5 843d 6fa0 c5bc
00000020: 6254 9a3c d0e0 1abc 95c6 043c 5144 77bb
00000030: 7125 fc39 a38c da3c ed70 d4b9 280b 6cbc
00000040: 218e fe3b 11c6 98bb 9ba0 7d3c 2885 78bd
00000050: 4780 f9bb edee c6bc 117b 21bd ca0d de3c
00000060: f8b2 023b 24cb 063c 6f66 ac3b 8731 643c
00000070: 25e7 40bd 2ad4 b8bb ea86 bc3c 814e a0bd
00000080: 4ecb 3abc d3ba a63d 273d b83b 0eb4 0c3b
00000090: c3ea 573a 62fc 1c3c b3b0 0c3c 99cc 3b3c
000000a0: 6418 04bc f50f f737 5f93 61bc 10e4 1a3b
000000b0: c35a aaba 8065 7cbc b657 c33c 72e2 86ba
000000c0: f405 823c 2249 043c 93f4 f7ba cd61 773b
000000d0: c9ba b13c c8c3 633c 68d1 c639 4f78 26bb
000000e0: ec68 cc3b 1d0e 3abc 111e 363c 08f0 93bd
000000f0: 97cd 8eb9 5510 a7bc 72d1 1fbd c12e 6b3d
00000100: bbd1 70bb 4d54 23bc 0059 66b9 bc58 2fbd
00000110: 35d5 c63c 4fd6 4a3c 2d97 0ebc bab0 cdbd
00000120: e697 e038 95e4 823d 4326 c9bb 61bf 153c
00000130: 6fa0 a23c 3b4d 5c3b 56bf babb b30b 8fbc
00000140: 9c59 243c 8abf c23c 0eb1 193c 3e12 92bc
00000150: 3010 52bc 5de1 fcbc a725 79bb 4192 b5bb
00000160: 894a 6abc b2c8 2e3c a1be 56bb 21db bbbb
00000170: ea67 38bc b363 34bb e86e 69bc 23ab 943c
00000180: 849f 70bb b2ab de3c c483 de3b 7d96 7abd
00000190: 65dd 8b3c 7fff 33bc 7d6c a0ba 1776 dd3b
000001a0: b426 43bb 4c1a 3e3c b2de 11bc 2913 95bc
000001b0: 0ae7 593c a5a6 4a3c 5c76 233c 24b8 3ebd
000001c0: cc63 043c 5f0d b13d 0e9a 9b39 8f14 b73b
000001d0: 5042 5abc fd23 09bc 1c34 003c 5a41 4dba
000001e0: c450 82bc 9512 913b a184 ecbb 2c93 b43c
000001f0: 85fe 273b c7c4 02bd a670 cbbb 3318 9b3c
00000200: 6299 61bb 25ae 10bc 2922 9aba eca4 b23b
00000210: 124e cfbc 490c fbbc 60bf a5bb fe69 dfba
00000220: 1d66 1bbb efb0 ffbb 7536 15bc b1ff 0bbd
00000230: 2538 6c3c 5994 123d 64e2 ae3c 68f3 a6bc
00000240: 9f47 fb3a 2210 8a3b ab26 12bc 37c1 303c
00000250: b63e 9e37 f9fa 47bc aabf 40bc a11a 4fbc
00000260: 6cdc ddbc b0b9 c13d 6294 f1bb cafa bc3a
00000270: 6991 93bb 7e5f 15bc 3b04 9c3c b67e 8b3c
00000280: c750 293c dd71 b6bb ad04 8bbc ec0f 54bb
00000290: d002 633c 646b d5bc a583 aabb 6832 ec3c
000002a0: 3b53 fbbb 27f9 78bb c392 1d3b 6674 f13b
000002b0: 7a2a 0a3b 3fbe 91bc d631 193c 9d16 843a
000002c0: a6c4 b5bb 9b02 b8bc 5bfc d03b 7dc5 fabc
000002d0: a524 04bc b7e3 403d bbe7 413d e9c0 ecba
000002e0: 9b48 8ebc 6b12 813c 22a4 213c 21e3 2e3b
000002f0: eb3f 813a 6487 07bc 4b6f ca3b 7952 113c
00000300: 0c88 b2bb c312 883d 9e9b f8ba efbb 54bb
00000310: 851f 9f3a c196 193c fe59 86bb 9367 63ba
00000320: b09f a4bc 8796 1fbc 4a9b 003a e0db 373c
00000330: 5171 66bc 37a9 0a3d 0c74 7bbc 7af7 a3bc
00000340: 9374 613b 4ee3 3b3b c91f a0bc 8fb4 3c3b
00000350: cbae a13a 95a6 61bb 942f 52bb 8745 f739
00000360: 4f95 fe3b c7e1 9f3b a19c 70bb 2f91 18bd
00000370: 13df f0bb 5c0e f93c 05fb 953d 8bb6 043c
00000380: 800d f53b ea10 9f3b 22b1 743c fd9d 953c
00000390: 4514 dbb9 36fd 8ebb b3ca c63a cbca c9ba
000003a0: fc5f 933b 2078 713c c094 9739 fda9 e1bc
000003b0: 1cfa 12bb 88a1 ee3b fb48 1ebc 593d 1dbd
000003c0: 9ee2 80bc 49eb 1ebc 2570 3cbc 249e 2e3c
000003d0: 3888 8f3b 8be7 fc3c 7290 cebc f2e4 bfbc
000003e0: d7e2 913a 15e3 3c3c d668 ff3b 05f9 0c3c
000003f0: 7fdd a23b 77b5 aabb 2244 a93b 9c51 803b
