plugins/main/src/androidTest/resources/glucose_model.tflite (tflite, 43056 bytes, 7 tensors)

sequential/dense_2/MatMul;sequential/dense_2/BiasAdd f4 [12]
00000000: f41d 4cbc fd49 68bb 0185 d23c 06af 743d
00000010: 4dcc 363d 0d67 d83c 089a 4b3d 2d49 3c3d
00000020: 00ea e23c 6500 963c a483 80bc 5fff 9cbc
-0.012458313 -0.003544449 0.025698187 0.059737228 0.04462843 0.026416326 0.049707443 0.045968223
0.02769947 0.018310735 -0.015687771 -0.01916474

sequential/normalization/truediv;sequential/normalization/Sqrt f4 [1, 159]
00000000: 74b4 173e 97ec af3d 873c 613d 9a27 593f
00000010: 8203 5a3f cf37 563f 3b29 573f a07c 5b3f
00000020: 29d0 5e3f c973 5d3f a4ac 5b3f 1cfa 5f3f
00000030: be9f 5f3f b348 5e3f 5364 613f 9319 623f
00000040: 8646 603f d3b1 603f 3e25 5e3f 4c4b 5e3f
00000050: 9c3a 613f ea43 623f 816e 5e3f fa56 603f
00000060: 748a 623f d00b 653f 14cc 5e3f 0501 1341
00000070: 6805 1041 dcb7 1a41 1d22 1b41 532e 1741
00000080: ba56 1441 6273 1741 5181 1a41 1641 1441
00000090: cb23 1841 11bc 1e41 1300 1b41 aaef 1c41
000000a0: 0040 1f41 daa7 1841 fe45 1e41 f3c0 1a41
000000b0: 2815 1b41 fe0b 1b41 336e 1c41 8af9 1b41
000000c0: cbc4 1d41 5a4d 1941 891c 1941 477b 193f
000000d0: 7997 1a3f 07c8 1b3f 8edf 1c3f b2d1 1d3f
000000e0: 609f 1e3f 7f5d 1f3f 9c06 203f f177 203f
000000f0: 928c 203f 7927 203f 686b 1f3f e77e 1e3f
00000100: e5a2 1d3f 1ee1 1c3f 9357 1c3f f1bb 1b3f
00000110: 402b 1b3f 0663 1a3f 9a80 193f 4a82 183f
00000120: 5095 173f e3ee 163f 8ba9 163f 0bb2 163f
00000130: 03dd 163f 7efd 163f 16fb 163f 01d5 163f
00000140: f6a7 163f a090 163f 9d88 163f c48d 163f
00000150: 969e 163f 4fdf 163f b34a 173f ad73 8d3d
00000160: e530 8d3d ee91 8c3d 53fc 8b3d 81b6 8b3d
00000170: f3bb 8b3d 806a 8b3d d13d 8a3d e424 883d
00000180: ccb8 853d 4ad0 833d b51f 833d abd0 833d
00000190: f69b 853d 26c0 873d f661 893d a324 8a3d
000001a0: 9028 8a3d cbd2 893d 00b9 893d 804d 8a3d
000001b0: 6693 8b3d 9cfb 8c3d c61e 8e3d 778b 8e3d
000001c0: 212c 8e3d b106 8d3d 6d88 8b3d 215a 8a3d
000001d0: 1eb5 893d f63b 893d 84dd 883d bbde 883d
000001e0: cc5b 893d dc4c 8a3d db51 8b3d 42f1 1b3d
000001f0: 28ff 1a3d 46f7 1b3d 24f7 1a3d 3735 1b3d
00000200: 5c5d 1c3d 4339 1b3d ba5b 193d 9707 1a3d
00000210: 2c85 1d3d 6e21 1d3d 18e2 1d3d 7d40 1e3d
00000220: 816c 1b3d e17d 193d 88d0 193d 8cdc 1a3d
00000230: 5d82 1c3d a57b 1b3d e677 1c3d ea96 1c3d
00000240: 5315 1c3d b5dc 193d fe5c 193d efa9 1a3d
00000250: 02c1 1b3d 1608 1b3d b1ea 1a3d 9e3e 1c3d
00000260: 9c40 1f3d 5024 1f3d 7352 1f3d 5280 203d
00000270: 0676 1e3d 2f1d 1c3d 6bd5 1c3d
0.14814931 0.08590048 0.054989364 0.8482605 0.851616 0.8367891 0.8404729 0.8573704
0.8703638 0.865048 0.85810304 0.8749101 0.8735312 0.8682968 0.8804371 0.88320273
0.8760761 0.8777134 0.8677558 0.86833644 0.87980056 0.8838488 0.86887366 0.87632716
0.8849251 0.8947115 0.8703015 9.187749 9.00132 9.669888 9.695828 9.44881
9.2711735 9.46567 9.656571 9.26589 9.5087385 9.920915 9.687518 9.808512
9.953125 9.540979 9.892088 9.672107 9.692665 9.690428 9.776904 9.748423
9.860545 9.581385 9.569467 0.5995373 0.6038738 0.6085209 0.6127862 0.61648095
0.61961937 0.6225204 0.62510085 0.62683016 0.62714493 0.6256023 0.62273264 0.6191239
0.6157668 0.61281 0.6107113 0.6083365 0.6061287 0.6030735 0.59961855 0.59573805
0.5921221 0.5895826 0.5885245 0.5886542 0.5893099 0.5898055 0.58976877 0.5891877
0.5885004 0.5881443 0.58802205 0.5881007 0.5883573 0.5893449 0.59098357 0.06906829
0.068940915 0.068637714 0.068352364 0.06821919 0.06822958 0.06807423 0.06750072 0.06647661
0.06529388 0.06436212 0.06402532 0.06436285 0.06523888 0.06628446 0.06708138 0.06745269
0.06746018 0.06729659 0.06724739 0.06753063 0.068152234 0.06883928 0.06939463 0.069601946
0.06942011 0.06886042 0.068131305 0.06755472 0.067239985 0.0670089 0.06682876 0.066831075
0.06706962 0.06752941 0.06802722 0.03807188 0.037840992 0.038077615 0.037833348 0.037892547
0.038174972 0.037896406 0.037440993 0.037604894 0.03845708 0.03836196 0.038545698 0.03863572
0.037945274 0.037473563 0.037552387 0.037807986 0.03821026 0.037959713 0.03820028 0.03822986
0.038106274 0.037564 0.0374422 0.037759718 0.038025863 0.03784951 0.037821475 0.038145654
0.038879976 0.03885299 0.03889699 0.039184876 0.038686775 0.03811377 0.03828947

Const_1 f4 [1, 159]
00000000: a162 2741 a629 d640 b9cd 5441 9a47 c23c
00000010: 62aa ff3c bb75 4a3d 4057 4a3d 73fd e63c
00000020: 8705 d03c 4a38 dc3c 4e37 b73c e817 e53c
00000030: 1441 553c c28b 50bc daa6 02bd 455a 59bd
00000040: e616 87bd b1f2 7abd f1c5 81bd e3ad 8abd
00000050: 0f52 38bd 8261 f1bc 4aef debc 608b c3bc
00000060: d3cd afbc c9eb 6abc 15b4 81bc e01e 403b
00000070: b481 273b e306 ef3a e30c 0bbb 3406 1bbb
00000080: 849b 08b9 39ac a4b9 b045 eb38 39ee 72ba
00000090: 3e9b 84bb 0441 93bb 003e 84bb c45f 60bb
000000a0: 0bf5 58ba 3644 8e39 3a07 2cba 4456 f03a
000000b0: 6a31 7a3b b89b e93a 5fd4 143a ff48 1c3a
000000c0: 8822 7f3a 74e1 143a d05f 5fb9 7db6 fd3f
000000d0: 9368 fd3f d334 fd3f 221d fd3f 7f1f fd3f
000000e0: f941 fd3f 7a8e fd3f 240b fe3f f5af fe3f
000000f0: 9063 ff3f c108 0040 214a 0040 fd7d 0040
00000100: b7b1 0040 a9f1 0040 e241 0140 e298 0140
00000110: d7e0 0140 7017 0240 d023 0240 9c03 0240
00000120: 77bd 0140 3c63 0140 3f0e 0140 58d0 0040
00000130: 07b3 0040 4bb5 0040 6bc9 0040 f4dc 0040
00000140: 88ef 0040 c8fa 0040 b6ff 0040 65f5 0040
00000150: 35da 0040 8eae 0040 b67f 0040 40af fb40
00000160: f6ef fc40 9e7a fe40 b412 0041 0c1b 0141
00000170: 749d 0241 ceaf 0441 de06 0741 3717 0941
00000180: e968 0a41 d5ad 0a41 dad8 0941 c15d 0841
00000190: f2e9 0641 89e3 0541 bf4b 0541 f5f4 0441
000001a0: f7a8 0441 0dfe 0341 aec5 0241 9d48 0141
000001b0: c0a8 ff40 a499 fd40 75df fc40 53ad fd40
000001c0: 4ac4 ff40 bd31 0141 9750 0241 9f42 0341
000001d0: 860b 0441 f359 0441 2604 0441 b239 0341
000001e0: b345 0241 d479 0141 2223 0141 d699 6342
000001f0: 049f 6242 87a4 6242 04ac 6142 8649 6142
00000200: 4fce 5f42 735d 6042 70e2 6042 6fec 5d42
00000210: 02f6 5e42 218c 5e42 39cf 5f42 2f4c 6242
00000220: 57b5 6442 637c 6342 7171 6242 a186 6242
00000230: 0dd7 6342 8fd8 6242 845c 6442 b4e9 6142
00000240: 96cc 6242 1108 6242 3526 6442 3a9b 6342
00000250: 8335 6342 486f 6142 6d8a 6142 ab0c 6242
00000260: 157a 6342 b1cc 6142 7d04 6142 495c 6242
00000270: 4014 6442 d621 6442 e947 6542
10.461579 6.692584 13.300225 0.023715783 0.031209175 0.049428683 0.049399614 0.028197026
0.02539326 0.02688231 0.022365239 0.027965501 0.013016004 -0.012728633 -0.031897403 -0.053064603
-0.065961644 -0.061266605 -0.063365825 -0.067714475 -0.045000132 -0.02946544 -0.027213711 -0.02387017
-0.02146045 -0.014338442 -0.01583294 0.0029315278 0.0025559487 0.0018236305 -0.0021217398 -0.002365482
-0.00013027905 -0.00031408833 0.000112186535 -0.00092670653 -0.0040468266 -0.0044938345 -0.0040357113 -0.0034236768
-0.00082762603 0.00027135172 -0.0006562356 0.0018336256 0.0038176426 0.0017822897 0.0005677398 0.0005961805
0.00097326236 0.0005679347 -0.0002130263 1.9821316 1.9797539 1.9781746 1.9774516 1.9775237
1.9785758 1.9809105 1.984715 1.9897448 1.9952259 2.0005343 2.0045245 2.0076897
2.0108469 2.0147498 2.0196462 2.0249562 2.0293481 2.0326805 2.0334358 2.0314703
2.027189 2.0216818 2.0164945 2.0127163 2.010927 2.0110652 2.0122936 2.013486
2.0146198 2.0153065 2.0156074 2.0149777 2.0133183 2.010654 2.0077949 7.865143
7.904292 7.952468 8.004566 8.069103 8.163441 8.292921 8.439177 8.568168
8.650613 8.667439 8.615442 8.522889 8.432116 8.368051 8.330993 8.309804
8.291251 8.249524 8.173262 8.080228 7.9893494 7.925005 7.9022775 7.9274077
7.992711 8.074643 8.144675 8.203765 8.252813 8.27196 8.251013 8.201586
8.142016 8.092243 8.071077 56.90023 56.65529 56.66067 56.417984 56.3218
55.951473 56.09126 56.22113 55.480892 55.740242 55.636845 55.952366 56.574398
57.17709 56.87147 56.610783 56.631474 56.96001 56.711483 57.090347 56.478226
56.69979 56.507877 57.03731 56.90159 56.802258 56.358673 56.38518 56.51237
56.86922 56.449894 56.254383 56.590122 57.019775 57.033043 57.320225

sequential/dense/BiasAdd/ReadVariableOp f4 [50]
00000000: 2a12 093d cf2d baba d22c cdbc 533a 50bd
00000010: 9185 f0bb 0155 4a3d 78fd a3bc 4cde 3bbd
00000020: 21da 24bd 51f8 823c cd20 39bd 8475 b53c
00000030: f1e1 2f3d cb5f d63b d2f7 0e3d 1633 3c3d
00000040: 7205 45ba 0564 fabc 3582 483b 131b 4a3c
00000050: 6c10 ebbc 5842 b43c 9ddc 5e3d 5164 a93d
00000060: 2445 f9bb 4836 dabc 9a72 b13c 2477 263d
00000070: 8be2 063d 90bc 8cbd b3e5 1b3d 1f74 dc3d
00000080: af61 ebbc c232 39bc 4dc9 333d 0cdd fd3c
00000090: abc0 a53d be03 53bb 3235 6a3b f5e1 3fbd
000000a0: 4e24 003b 1824 59bd 6fcc 2b3d 5ab8 79bd
000000b0: d9ac 0a3b 0b19 353c 01fe 6abd dc4f 053b
000000c0: d4d6 0dbc 26a8 3fbb
0.03346459 -0.0014204326 -0.025045786 -0.050836872 -0.007340141 0.049397472 -0.020018324 -0.045866296
-0.040247086 0.015987547 -0.045197297 0.022150762 0.042940084 0.006542181 0.03490431 0.045947157
-0.0007515765 -0.030565271 0.0030595188 0.012335557 -0.028694354 0.022004291 0.054409612 0.08271087
-0.007607119 -0.026637211 0.021661092 0.040640965 0.032930892 -0.06871903 0.038060855 0.10764336
-0.028733103 -0.0113036055 0.043893147 0.030989192 0.08093389 -0.0032198275 0.0035737273 -0.04684635
0.001955289 -0.053012937 0.04194301 -0.060966827 0.0021160154 0.011053334 -0.057371143 0.002034179
-0.008657176 -0.0029244511

sequential/dense/MatMul1 f4 [50, 159]
00000000: de30 253e 8fba 073d c9a8 c1bd a353 003c
00000010: 4470 f73c 942b 70bd 3ba1 b13d a470 2c3e
00000020: 16d2 193e 64bd 0d3c 531d d4bd f783 3dbe
00000030: 9021 0abe 3ab4 643e 8493 48be 8ee9 25be
00000040: ca70 693c e272 ee3c f9ca bdbd 4c46 5ebd
00000050: b23d 533c be1b 9bbd 11a9 c1bd 9330 ab3c
00000060: 92eb 3fbe bd52 b4be 1713 c8bd 4db4 8c3d
00000070: 7d21 0bbe ac3f 853d adc2 d03c c231 db3d
00000080: 487d cc3d d1c0 42be dd1e db3d 7577 043d
00000090: 590d 04bd 7754 b2bc e152 d2bc bfab 6c3d
000000a0: a90b f9bd 63ed bfbd 477d 813b 5bc3 fbbd
000000b0: 5c75 48be c642 ad3b 3759 91bc 1bfa f2bd
000000c0: dd48 ccbd d7b6 05be 01a3 55bf 8198 b0bc
000000d0: 2efa df3d cc27 953d 4db4 b4bd 1ace 333e
000000e0: e419 b53d b884 96bd 5608 bdbd 4fcf 85be
000000f0: cc6e 33bd f335 8abd 7096 f63d 3b82 49bd
00000100: 91e6 08be c8ef 06be d5f7 9dbd 2218 f9bc
00000110: 2e7f b8bc 2d96 45bc a5af ea3d 4e73 40bd
00000120: 53f2 273e 6e9f 89bc ea51 bebd 35d7 2ebd
00000130: 6489 e13c 96ed 4cbe be29 f73d 2f52 253c
00000140: 5560 663e 1e08 af3d 79e9 243e 1091 06be
00000150: 4b07 ecbe 93a0 d3be 0c4d f63e 7f22 613d
00000160: 5b86 5c3d 07c7 33bd 4a98 3a3e 1fc3 263e
00000170: 9451 13be d6bc 12be 2b32 b03d 106d bebd
00000180: 3b1b 27bd ebc0 e73d c6dc 6f3c edd2 03bb
00000190: 415c d93d e2bf 06be 1598 c4bc 5e78 53bd
000001a0: a0ff 0b3e e059 61bd 673d 333e b6dc 23bd
000001b0: a84f 96bd 4852 d63d 6427 083e 5ac0 c63b
000001c0: a354 5d3d 1af5 403d 6661 8cbc fd15 53bd
000001d0: 1ecb 58be 5321 32be a55a c23d 3447 90be
000001e0: 2e76 43be b87a 60be bd51 7d3f 0fec 43bc
000001f0: ff63 c9bd 101f 81be 1418 ef3b 050c 07be
00000200: c6c6 ad3d 0b98 17bd 2b3d 433d 2fd1 20be
00000210: f765 67be 4d38 893d 5211 0e3e 4bcf 00be
00000220: e91b a63d 3afa 76bd 7195 353e 8dd4 ef3d
00000230: 4541 213d 8027 13bd 2667 4ebe 1867 ddbd
00000240: 25bb 493c ef36 4b3e 31a4 163e 2976 b23c
00000250: 0433 393d 4606 f8bd 5654 213e a3ff e53d
00000260: b12c c3bd fd8d 18be 0c33 27be f1f1 803d
00000270: 2e7b ea3c 5c80 d33d 21ae 233d f324 acbd
00000280: e7b6 af3d 7bbb ab3d d38d eb3c a9e6 ba3d
00000290: 1bc9 18be 8e47 ee3c 6b61 9bbd 0fed 2f3d
000002a0: 879e b1bb 0a7d 74bd 932e 873d eee9 f33d
000002b0: 1e01 dfbd 4aca d83d 5fb1 dcbd 03c5 f03d
000002c0: d1f3 b23c dbb3 943b f05d 283e 4a7b 993d
000002d0: b0a0 7a3b fd53 8e3e 87b5 e9bd 6dd2 f43e
000002e0: 2f85 af3d 6508 733e 97f4 dc3b 7140 6c3e
000002f0: 5b5d 5a3d a081 b1bc d1ce 6fbe f967 813e
00000300: e667 003e 98bc c8bd 8e72 b23c cac1 cdbd
00000310: 5b9e c43c 35ed 2b3c 7a86 4ebe a4ba 8cbd
00000320: d39c f8bd 19f5 c63a 8158 2e3e 955f 543d
00000330: d348 c73d 94ce 2bbc 7aa0 3c3e 4bf3 573e
00000340: 2540 6ebe e206 4e3f 005b f43c 1d9a 85bb
00000350: 4b08 59be de97 3abe 4bd5 06be 2761 67bd
00000360: cde8 883d 131d 88bc ef9c ea3d e408 aabd
00000370: 88ef 273e b091 28bd daa7 1d3d 61e7 963e
00000380: bfae f23c 6eef 403e 4b31 92bd 6d06 ffbd
00000390: 38f3 f6bd cf60 02bd a6ec cfbc f0a3 5f3e
000003a0: f9b9 333d b9f1 813d 45dd ab3d 1a80 f3bb
000003b0: 56c7 6ebd 21d6 bebd 6640 083e 1beb 503d
000003c0: 783a 57bd 4589 a2be 4d98 8fbe 8892 ebbc
000003d0: d683 ef3d c555 023f 37c6 99bd 2455 7a3e
000003e0: c597 143e 2a05 d0bc e3c3 d4b9 65dd 78be
000003f0: 1d0c 153e 9076 75bd 319e 673c a7d3 b8bc
0.16131923 0.0331369 -0.09456021 0.007832441 0.0302049 -0.05863531 0.086733304 0.16839844
0.15021548 0.008651111 -0.10357156 -0.18507372 -0.13489366 0.22334376 -0.19587523 -0.16202375
0.014248082 0.029107515 -0.092672296 -0.05426626 0.012893127 -0.07573651 -0.09456075 0.020897185
-0.18742207 -0.35219374 -0.09769266 0.06870327 -0.13586994 0.06506285 0.025483454 0.1070285
0.09984833 -0.19018866 0.10699246 0.032340486 -0.03223929 -0.021768792 -0.025674285 0.057780977
-0.12160427 -0.0937145 0.003951702 -0.122931205 -0.19576019 0.005287501 -0.017742736 -0.1186411
-0.09974835 -0.13058029 -0.8345185 -0.021557095 0.1093639 0.07282981 -0.08823452 0.1755909
0.08842829 -0.07349533 -0.092301056 -0.26134726 -0.043806836 -0.06748571 0.120404124 -0.049196463
-0.13369204 -0.13177407 -0.07713286 -0.030407015 -0.022521582 -0.0120597305 0.11459283 -0.046984963
0.16401033 -0.016799655 -0.092929676 -0.042685706 0.027531333 -0.20012507 0.120685086 0.010090395
0.22497685 0.0854647 0.16104688 -0.13141274 -0.46099314 -0.41333446 0.48105657 0.05496454
0.05383907 -0.04389098 0.18222156 0.1628537 -0.14386588 -0.14329848 0.08603319 -0.09298146
-0.040797453 0.11316093 0.014640039 -0.0020114735 0.10613299 -0.13159135 -0.0239983 -0.051628463
0.13671732 -0.055017352 0.17503892 -0.04000541 -0.07339412 0.10464913 0.13296276 0.0060654106
0.054035794 0.047108747 -0.017136287 -0.05153464 -0.21171233 -0.17395525 0.09489945 -0.28179324
-0.1908805 -0.21921813 0.9895285 -0.011958136 -0.09833526 -0.2521901 0.0072965715 -0.13188179
0.08485179 -0.037010234 0.047665756 -0.15704797 -0.2259749 0.06700192 0.13873795 -0.12579076
0.08110792 -0.06029723 0.17732789 0.11710463 0.039368887 -0.035926342 -0.20156536 -0.10810679
0.012312685 0.19845174 0.14711072 0.021784859 0.045214668 -0.121105716 0.15754828 0.112303995
-0.095300086 -0.14897914 -0.16328067 0.06296147 0.02862319 0.10327217 0.039960984 -0.08405485
0.08579808 0.083853684 0.02875415 0.09126026 -0.14920466 0.029086854 -0.075869404 0.042950686
-0.0054205093 -0.05968956 0.0660068 0.11909853 -0.10888885 0.105854586 -0.10776018 0.11756327
0.021844776 0.004538042 0.16442084 0.07494219 0.003824275 0.27798453 -0.11411577 0.47816792
0.08570325 0.23733671 0.0067430246 0.23071457 0.053311687 -0.021668255 -0.23418738 0.25274637
0.12539634 -0.098015964 0.02178314 -0.10046728 0.024001291 0.010493566 -0.20168486 -0.068715364
-0.12139287 0.0015179246 0.17025949 0.051848967 0.09730687 -0.010486264 0.18420592 0.21088903
-0.23266657 0.8047925 0.029828548 -0.0040772096 -0.2119457 -0.18221995 -0.13167302 -0.056489136
0.06685028 -0.016615426 0.11455714 -0.08302477 0.16399968 -0.041154563 0.038490154 0.29473403
0.029624341 0.18841335 -0.07138308 -0.124523975 -0.12058109 -0.031830605 -0.025381397 0.21839881
0.04387853 0.06344933 0.08391813 -0.0074310424 -0.05829557 -0.093181856 0.13305816 0.051005464
-0.052545995 -0.31745353 -0.28045884 -0.028756395 0.116950676 0.50912124 -0.075085096 0.24446541
0.1451102 -0.025393087 -0.00040581738 -0.24303205 0.14555402 -0.059927523 0.014136837 -0.022561861

sequential/dense_1/MatMul f4 [30, 50]
00000000: d23f 263e 15b9 763d e2da 4ebd 02e0 2d3b
00000010: 2194 343c 52e6 083e 1a1b dabd 6c1d 92bd
00000020: ffda 1d3e 4671 2d3e 166d a33c a4ec e7bd
00000030: 20d1 70be 05c7 19be a6fd 763c b9f9 2b3e
00000040: d6a1 523e 2d2d a1bc 1a27 9b3e d2f4 703e
00000050: 5f3e b8bd 5ade 033e 8fe6 39bd 3374 2bbe
00000060: 7011 00be 616e cfbd 56e1 aa3d c037 8c3b
00000070: 0b89 f03b 283d d1bd 4961 d83d bac0 ffbd
00000080: e242 333e dd35 29be 4697 d1bc 8426 e83d
00000090: 0947 413d 863b a1bd 0697 0cbd d435 f03c
000000a0: e0c9 433d ec8c a53d 5a49 b43e d35a 93bd
000000b0: 3539 093e 92f8 283e cb35 e23d b694 9c3e
000000c0: 5cef 4cbd 760d 20be bd61 90be be77 4b3e
000000d0: 13f0 8fbd d961 a6bd 38e6 51bd 381e f93c
000000e0: d6d8 27be 4d97 60bc 996b 9dbd 0674 4d3d
000000f0: 5f74 8d3d d256 3cbd d4ff c83d 2c64 243d
00000100: 3205 103e 06a8 81bc 3a4f 473d 7249 1e3e
00000110: 114b 143d 810f 473e 41e3 d6bd d171 c53d
00000120: 90f2 67bd c0fd e4bd 4d84 0d3e bb71 10be
00000130: 4487 50bd 961a 023e 0933 5fbe 51e6 11be
00000140: bf4d 1a3e 66e1 24bd 8812 9dbd 8a89 c2bd
00000150: 078a babd 6a59 c3bc 4086 1b3d 1ee8 f43d
00000160: e8e6 873b 6c96 8cbd e6f0 183e 8c27 6ebd
00000170: 4d12 803d 61b1 64be 51a3 723e 90b4 253d
00000180: 1d64 53bd 3709 a03c 3f57 983d 5cc4 dbbd
00000190: 9563 8ebc 81bb 163c 015d 9d3d fb93 7ebe
000001a0: 074b 3ebe 108b d8bd f243 36be 8a8e c3bd
000001b0: c620 2cbd a178 003e c17d e13b b0e2 d6bc
000001c0: 8aab e9bd 9a4f 453e b92b 2dbd 3c0c 86bd
000001d0: f52f ad3e 7dbe 91bc 0022 8a3d 34f6 9e3d
000001e0: 6f97 f43d b07b ac3d fef7 f8bd eeec 873e
000001f0: ab61 2c3d d55b 4d3c be63 5e3e b8d2 b23d
00000200: c196 07be 807e b33d d8bc cb3d a028 46be
00000210: 0283 cdbd a0c4 cc3d c4a3 853d 49cd d13d
00000220: 088e 86bd 5478 6d3e 0ef5 103d 706f 0b3e
00000230: 2d3f 83bc 3fbb d8bc 6201 81bd cef9 1d3c
00000240: bc54 0f3e a568 803d 9021 143e 4005 1b3e
00000250: cc03 493e 94ae 3b3e 2fa1 32bd 9cd3 0a3e
00000260: ca10 a23e aa93 b03e de58 043d b8ff 6a3d
00000270: 38ec 53bd ddf1 ee3d a924 963e b56b bbbd
00000280: 6a4b b8bd b0ab 183c 9bb1 d8bd 9a13 4bbe
00000290: a674 5ebd 2bac 9abe 381d 513e c461 aabc
000002a0: 291f d83d 5f48 013e a071 3a3e 3513 4cbd
000002b0: 2b4c f13d a5e6 19bc 9418 603e f48f 27be
000002c0: 7e4b 88bd 5e18 943d bf67 3c3d abf1 6abe
000002d0: 33a4 053b 783a 093e d5d7 953d 44f9 f0bc
000002e0: 67ab eb3d 57fb caba 468d 213e e08d e63c
000002f0: da98 293c 6b77 473e 420f d93e 626e 743c
00000300: 36f3 443d c31d 51bd 2668 29be 59da f03e
00000310: 36d1 1cbe 97c9 4dbd 1168 bc3d 11e8 453e
00000320: 69d3 303c 8460 043d 7a4c bd3d 1a2b a63b
00000330: 837c 5dbe ad63 813d 0896 003d 7ddd d63c
00000340: 1565 2c3e 7543 06be 3f9b 0fbe 5717 7fbe
00000350: 62ee 06be f64e 983d 154b dc3b 9ef2 29be
00000360: 8e7e dbbd 89fe ed3d b459 3cbe cc49 0fbe
00000370: 6fc9 023e ec81 6bbd 774e 92bd c9d2 cb3d
00000380: 89ab 0e3b 98f0 e7bd 6e4b a23d 9091 9fbd
00000390: 0e4f ce3c 8346 943d 8a48 563e 3f13 a53d
000003a0: 3921 a23d 73f3 f43c 4848 0f3e 990c a63d
000003b0: 54e1 3bbe 2a89 113c 807e e63d fa75 4abe
000003c0: 5eca 7cbd 4700 153e f6e1 bbbc 6551 bebd
000003d0: eb85 4bbe 3ea1 44be 7e0e 92bd f9a6 dfbb
000003e0: 6425 683e ba96 f0bd 2a8b fe3d 76d7 37be
000003f0: e220 0cbd 7723 b8bd 0aa9 5f3d 9ba2 6dbb
0.16235283 0.0602351 -0.05050171 0.0026531224 0.011021645 0.1336911 -0.106497005 -0.07134518
0.15415572 0.16937742 0.019949477 -0.113244325 -0.23517275 -0.15017326 0.015075123 0.1679448
0.20569548 -0.019674862 0.3030327 0.23530892 -0.08996271 0.12877789 -0.045385893 -0.16743545
-0.12506652 -0.10128475 0.08343761 0.004279107 0.0073405555 -0.10216743 0.10565431 -0.124879315
0.17505983 -0.16524453 -0.025584828 0.11335471 0.047186885 -0.07872681 -0.034323715 0.029322542
0.047799945 0.08083519 0.35212213 -0.07195058 0.13400729 0.16501072 0.110454164 0.30582207
-0.05003296 -0.15630135 -0.28199568 0.19869897 -0.070282124 -0.08124132 -0.051244944 0.030409917
-0.1639131 -0.013707948 -0.07686538 0.050159477 0.06906962 -0.045981236 0.0981442 0.040134594
0.14064482 -0.01582719 0.04865954 0.15457705 0.0362044 0.19439508 -0.10492564 0.096408494
-0.05662781 -0.111812115 0.1382 -0.14105885 -0.05091025 0.12705454 -0.21796812 -0.14248015
0.1506872 -0.04025402 -0.0766955 -0.0949889 -0.09108358 -0.023846347 0.037969828 0.11958335
0.004147399 -0.06864628 0.14935645 -0.058143184 0.062534906 -0.2233329 0.23695113 0.0404554
-0.051609147 0.019535644 0.07438516 -0.10730812 -0.017381469 0.009199978 0.07683755 -0.24861138
-0.18583308 -0.10573399 -0.17799357 -0.095486715 -0.042023443 0.12546016 0.006881446 -0.02623114
-0.114096716 0.19268647 -0.042278025 -0.06545302 0.3382565 -0.017791027 0.06744766 0.07761803
0.11942946 0.08422029 -0.12156676 0.2654795 0.04208533 0.0125341015 0.21717736 0.08731598
-0.13241102 0.08764362 0.099481285 -0.19351435 -0.100347534 0.09998441 0.065253764 0.10244233
-0.06570059 0.23190433 0.035389952 0.13616729 -0.016021335 -0.026456473 -0.06299092 0.009642078
0.13997167 0.06269959 0.14465928 0.15138721 0.19630355 0.18328315 -0.043610748 0.13557285
0.31653434 0.3448766 0.032311313 0.05737278 -0.051738948 0.116672255 0.29324844 -0.09151403
-0.08998759 0.009318277 -0.105807506 -0.19831696 -0.054310463 -0.3020948 0.20421302 -0.020798571
0.10552818 0.12625264 0.18207407 -0.049823005 0.11782106 -0.009393369 0.21884376 -0.16363508
-0.06655024 0.0723121 0.045997377 -0.22943752 0.002039206 0.1340121 0.07316557 -0.029415734
0.11507302 -0.0015486282 0.15776548 0.028143823 0.010351384 0.19479148 0.42394453 0.014918895
0.048083507 -0.051053774 -0.16543636 0.47041586 -0.15314183 -0.05024108 0.091995366 0.19326808
0.010792592 0.032318607 0.09243102 0.005071056 -0.21629529 0.0631784 0.03139308 0.02622866
0.16835435 -0.1311167 -0.14024065 -0.24911247 -0.13176873 0.074369356 0.0067228177 -0.16596457
-0.10717498 0.11620814 -0.18393594 -0.13992995 0.12772153 -0.05749695 -0.07143872 0.099523135
0.0021769723 -0.113251865 0.07924543 -0.07791436 0.02518418 0.072400115 0.20926109 0.080603115
0.07916493 0.029901242 0.13992417 0.081078716 -0.18347675 0.0088828 0.11254597 -0.19771567
-0.06171643 0.14550887 -0.022934895 -0.092928685 -0.19875304 -0.19202134 -0.071316704 -0.0068253246
0.22670513 -0.11747499 0.12428887 -0.17953286 -0.034211047 -0.089911394 0.054604568 -0.003626025

sequential/dense_2/MatMul f4 [12, 30]
00000000: e036 e13c 330b 283e 9029 3cbe 398f 8c3c
00000010: db3f cb3c 471f 56bd 19fc 05be 67e8 cd3c
00000020: 58ff 123d f978 a13c 5f16 d63d d668 743d
00000030: de07 19bd 18a3 723e 018f b6bd 04b2 143c
00000040: c1ff 76bd 293f 97bd 38a4 2bbd d61a 7c3d
00000050: 3381 923d aab4 9fbc 90b8 febd 92ed 633e
00000060: f951 f7bd 4380 99bd 6b82 103c bbed 96bd
00000070: db65 25bd 57f9 0c3d 6ece 0a3d dee9 443d
00000080: 80e4 87bd 1b6f 04bc dfbd 89bb 0500 403d
00000090: 951b 7a3d f3cd 95bc 516a 933d b701 b7bd
000000a0: aa3e f63d a6bc d73d de94 83be 5fbd e43d
000000b0: 0e89 9a3d 405a bd3d b68d d23d ba28 1cbe
000000c0: a3a6 a23d e1be df3d 6cbc 12bd ebe6 523c
000000d0: 9b93 3abe e972 c53d 7c4c 3dbc a251 1e3e
000000e0: a732 46bd 9a1a 2b3d df82 f33d 8267 1c3d
000000f0: 2d33 4ebd 4a21 353d bb3f 903d bb95 93bd
00000100: e614 33bd c414 dcbc cdbd 76bd 9eb1 e1bd
00000110: 74ab 53bb 103c fd3c e929 49bc eab9 4e3d
00000120: ef2b ecbd 6844 f83d 8a2e 4bbc 8186 6bbc
00000130: e291 bf3b f93b 0fbe d54d e7bc 90e2 8f3d
00000140: 0ab5 20be d15e a5bd a9fa b2bd d35d 953d
00000150: 79dc 8a3d 6ad2 1f3c 084b 9cbc 923b 963c
00000160: 62d1 2dbd 46c0 843d 99d2 cebc 4dfc 683d
00000170: a2d7 723d 54ae 19bd 7b97 a73a b162 15bc
00000180: 147f 81bc 5300 52bd 29c8 363d 1cf4 9d3d
00000190: b1c5 82bd 52d3 903d 0fe5 3abb 93c8 843d
000001a0: dc4a e9bb ee6a 8f3c 188a cf3d 78a8 b5bd
000001b0: c447 d2bd 5083 80bd 5147 acbd 416a 15bd
000001c0: 9409 05be 7404 80bc 8458 553d 2336 1f3d
000001d0: a962 aabd c0e8 51bd 523c 413c 6ebb 843c
000001e0: 4f1f 8c3d 455a 5ebc 8fcb 07bd 3935 d53c
000001f0: d652 683d 88e6 18bd e012 69bd 81d9 673d
00000200: 2568 a63d b644 0cbd 7b88 9cbd 619d d83d
00000210: 5f62 a83d f30f 3b3d 1a36 543a 4f23 fd3b
00000220: 4787 0f3e 65a5 833d c65a ddbd f938 e4bd
00000230: 9a95 cbbd b382 d4bc 626d 29be 27e6 c6bd
00000240: 891a 813d f8dc 043c 92eb b5bd d994 bcbd
00000250: 8ed5 3ebc 572a 263c b4dc 203e bbef 9dbb
00000260: ec24 79bd 42a0 eb3c 492f d4bc 9f26 f5bc
00000270: ccb0 15bd b7a3 b6bc 37d8 463c 378e 5fbc
00000280: 7d90 e5bd caaa 9cbc dd53 853c 6901 dbbc
00000290: 0d37 69bd cf3c b83d 3314 d63d 284a cfbc
000002a0: 771e 02bc ce1f 90bd ede7 cfbd 2dd2 f73a
000002b0: 8ab1 17be ce6b 70bc 789c 153e dd9f b4bd
000002c0: bcdf 0abe 7ae8 9cbd db61 b3bd 6887 a7bd
000002d0: bf01 163e 2064 adbc e05f 213d 98b5 92bb
000002e0: ee03 d5bc c441 a63d d289 10be 19d7 10be
000002f0: d072 86bd 27c5 90bb ce73 12bd 8d0c 003e
00000300: 88e0 873d 2818 7fbc c850 10bb 787d c83d
00000310: 9fe0 bd3c d343 5abd 85e2 943c 3dac 9dbd
00000320: d1ca b3bd e412 a53d f35a 3e3d d522 123d
00000330: 2601 fc3d 841f a83c cd16 55bd 2117 8dbd
00000340: 8389 5abd 741b 183c ebcd f83c 4957 5cbe
00000350: 24f7 4fbd f77a 6abb 0a7e 523b e6fb 37bc
00000360: 2c52 f0bc 47fc 97bd b2dc 5abc 59cb a43a
00000370: 138b 393d a9c2 ae3d 39c5 2d3e 778a ea3c
00000380: 14a8 913d 5c8d bfbc f0e7 d43d d586 893d
00000390: 4ad2 c93c 31dd 82bd f0c5 8fbd 13c1 a53d
000003a0: c3cc 2dbd 5cb5 ba3d 1919 1c3e 4c4f 7b3d
000003b0: 4669 37bd d06a 51bd 6d10 ebbd ab81 59bc
000003c0: 6e6f 00bc cb4c 22be 871e c1bd 4943 96bd
000003d0: 4a82 903d 1dec d13c 9f4f a1bb e603 8c3c
000003e0: 1ca0 68bd 766d 013c ded2 6abb ec90 0abd
000003f0: 2ff0 143e b478 a73c 27a0 533d 164e e63d
0.027491987 0.16410522 -0.1837523 0.017158138 0.024810722 -0.052275922 -0.13084449 0.025135232
0.035888046 0.019711005 0.10453486 0.05967029 -0.03736102 0.23695028 -0.089139946 0.009075645
-0.0603025 -0.07385094 -0.041904658 0.06154903 0.07153549 -0.019495327 -0.12437546 0.22258595
-0.12076182 -0.07495167 0.008820157 -0.07369562 -0.04038034 0.034417477 0.033888273 0.048074596
-0.0663538 -0.00808313 -0.0042035426 0.04687502 0.06106146 -0.01828668 0.071980126 -0.08935874
0.12023671 0.10534029 -0.25699514 0.11168932 0.07545672 0.092457294 0.102809355 -0.15249911
0.0794194 0.10925079 -0.035824224 0.012872438 -0.1822037 0.09641058 -0.01155388 0.15460828
-0.04838815 0.041773416 0.11890196 0.03818465 -0.050341774 0.0442212 0.070434056 -0.07206293
-0.043721102 -0.02686537 -0.060239602 -0.11020206 -0.003229824 0.03091243 -0.012278059 0.05047027
-0.11531817 0.121224225 -0.0124012325 -0.01437533 0.005846248 -0.13987722 -0.028235355 0.07025635
-0.15694061 -0.080747254 -0.08739216 0.07293286 0.06780333 0.009754756 -0.019078746 0.018338952
-0.04243601 0.06481986 -0.025246905 0.056881238 0.059287675 -0.037519768 0.0012786234 -0.009117768
-0.015807666 -0.05126984 0.04462448 0.07712576 -0.06385363 0.07071556 -0.0028517877 0.06483569
-0.0071195196 0.017507043 0.10133761 -0.088700235 -0.102675945 -0.06275046 -0.0841204 -0.036478285
-0.12991935 -0.015627123 0.05208637 0.03886999 -0.08319599 -0.05124736 0.011794167 0.016202655
0.06841909 -0.013571327 -0.033153113 0.026026355 0.056719624 -0.037329227 -0.056902766 0.056603912
0.08125333 -0.034245215 -0.07643219 0.10576893 0.08221888 0.045669507 0.000809522 0.0077251564
0.14016448 0.06428031 -0.10808329 -0.11143679 -0.099406436 -0.025941228 -0.16545632 -0.09711867
0.06303889 0.008109324 -0.08882822 -0.09208078 -0.011647595 0.010141931 0.15709192 -0.004819838
-0.060826227 0.02876294 -0.025901454 -0.029925643 -0.03654556 -0.022294862 0.012136511 -0.0136447465
-0.112091996 -0.019124407 0.01627534 -0.02673407 -0.056937266 0.08995973 0.104530714 -0.025303915
-0.007941834 -0.07037316 -0.10151658 0.0018907242 -0.1481382 -0.01467414 0.1461047 -0.08819554
-0.1356191 -0.07661529 -0.08758899 -0.081801236 0.14649104 -0.021165907 0.039398074 -0.004477214
-0.02600285 0.081180125 -0.14115074 -0.14144553 -0.065648675 -0.0044180336 -0.03575497 0.12504788
0.06634623 -0.015569724 -0.0022020806 0.09789556 0.023178397 -0.05328734 0.01817442 -0.076988675
-0.087789185 0.08060244 0.046473455 0.03567775 0.123049065 0.02052284 -0.052023698 -0.06889177
-0.053353798 0.009283889 0.030371627 -0.21517672 -0.0507728 -0.003577886 0.0032118582 -0.011229491
-0.029336058 -0.07421165 -0.013358282 0.0012572809 0.045298647 0.08533222 0.16969766 0.028630478
0.071121365 -0.023382835 0.10395801 0.0671517 0.024636406 -0.06389845 -0.070201755 0.080934666
-0.042431604 0.09116623 0.15243949 0.06135492 -0.04477813 -0.051127255 -0.11477742 -0.013275544
-0.007839067 -0.15849607 -0.09429651 -0.073370524 0.07056101 0.025625283 -0.0049228217 0.017091703
-0.056793317 0.007899633 -0.0035831253 -0.033829615 0.14544748 0.020443298 0.051666405 0.112453625
