plugins/main/src/androidTest/resources/glucose_model.tflite (tflite, 43056 bytes, 7 tensors)

sequential/dense_2/MatMul;sequential/dense_2/BiasAdd f4 [12]
-0.040904503 -0.02682204 0.027958315 0.041989602 0.039464448 0.05900103 0.05491215 0.04389969
0.019540936 -0.022315416 -0.044304475 -0.050679125
00000000: 7b8b 27bd e5b9 dbbc d608 e53c 4afd 2b3d
00000010: 79a5 213d 10ab 713d 90eb 603d 29d0 333d
00000020: 5014 a03c d2ce b6bc 9c78 35bd ea94 4fbd

sequential/normalization/truediv;sequential/normalization/Sqrt f4 [1, 159]
0.14814931 0.08590048 0.054989364 0.8482605 0.851616 0.8367891 0.8404729 0.8573704
0.8703638 0.865048 0.85810304 0.8749101 0.8735312 0.8682968 0.8804371 0.88320273
0.8760761 0.8777134 0.8677558 0.86833644 0.87980056 0.8838488 0.86887366 0.87632716
0.8849251 0.8947115 0.8703015 9.187749 9.00132 9.669888 9.695828 9.44881
9.2711735 9.46567 9.656571 9.26589 9.5087385 9.920915 9.687518 9.808512
9.953125 9.540979 9.892088 9.672107 9.692665 9.690428 9.776904 9.748423
9.860545 9.581385 9.569467 0.5995373 0.6038738 0.6085209 0.6127862 0.61648095
0.61961937 0.6225204 0.62510085 0.62683016 0.62714493 0.6256023 0.62273264 0.6191239
0.6157668 0.61281 0.6107113 0.6083365 0.6061287 0.6030735 0.59961855 0.59573805
0.5921221 0.5895826 0.5885245 0.5886542 0.5893099 0.5898055 0.58976877 0.5891877
0.5885004 0.5881443 0.58802205 0.5881007 0.5883573 0.5893449 0.59098357 0.06906829
0.068940915 0.068637714 0.068352364 0.06821919 0.06822958 0.06807423 0.06750072 0.06647661
0.06529388 0.06436212 0.06402532 0.06436285 0.06523888 0.06628446 0.06708138 0.06745269
0.06746018 0.06729659 0.06724739 0.06753063 0.068152234 0.06883928 0.06939463 0.069601946
0.06942011 0.06886042 0.068131305 0.06755472 0.067239985 0.0670089 0.06682876 0.066831075
0.06706962 0.06752941 0.06802722 0.03807188 0.037840992 0.038077615 0.037833348 0.037892547
0.038174972 0.037896406 0.037440993 0.037604894 0.03845708 0.03836196 0.038545698 0.03863572
0.037945274 0.037473563 0.037552387 0.037807986 0.03821026 0.037959713 0.03820028 0.03822986
0.038106274 0.037564 0.0374422 0.037759718 0.038025863 0.03784951 0.037821475 0.038145654
0.038879976 0.03885299 0.03889699 0.039184876 0.038686775 0.03811377 0.03828947
00000000: 74b4 173e 97ec af3d 873c 613d 9a27 593f
00000010: 8203 5a3f cf37 563f 3b29 573f a07c 5b3f
00000020: 29d0 5e3f c973 5d3f a4ac 5b3f 1cfa 5f3f
00000030: be9f 5f3f b348 5e3f 5364 613f 9319 623f
00000040: 8646 603f d3b1 603f 3e25 5e3f 4c4b 5e3f
00000050: 9c3a 613f ea43 623f 816e 5e3f fa56 603f
00000060: 748a 623f d00b 653f 14cc 5e3f 0501 1341
00000070: 6805 1041 dcb7 1a41 1d22 1b41 532e 1741
00000080: ba56 1441 6273 1741 5181 1a41 1641 1441
00000090: cb23 1841 11bc 1e41 1300 1b41 aaef 1c41
000000a0: 0040 1f41 daa7 1841 fe45 1e41 f3c0 1a41
000000b0: 2815 1b41 fe0b 1b41 336e 1c41 8af9 1b41
000000c0: cbc4 1d41 5a4d 1941 891c 1941 477b 193f
000000d0: 7997 1a3f 07c8 1b3f 8edf 1c3f b2d1 1d3f
000000e0: 609f 1e3f 7f5d 1f3f 9c06 203f f177 203f
000000f0: 928c 203f 7927 203f 686b 1f3f e77e 1e3f
00000100: e5a2 1d3f 1ee1 1c3f 9357 1c3f f1bb 1b3f
00000110: 402b 1b3f 0663 1a3f 9a80 193f 4a82 183f
00000120: 5095 173f e3ee 163f 8ba9 163f 0bb2 163f
00000130: 03dd 163f 7efd 163f 16fb 163f 01d5 163f
00000140: f6a7 163f a090 163f 9d88 163f c48d 163f
00000150: 969e 163f 4fdf 163f b34a 173f ad73 8d3d
00000160: e530 8d3d ee91 8c3d 53fc 8b3d 81b6 8b3d
00000170: f3bb 8b3d 806a 8b3d d13d 8a3d e424 883d
00000180: ccb8 853d 4ad0 833d b51f 833d abd0 833d
00000190: f69b 853d 26c0 873d f661 893d a324 8a3d
000001a0: 9028 8a3d cbd2 893d 00b9 893d 804d 8a3d
000001b0: 6693 8b3d 9cfb 8c3d c61e 8e3d 778b 8e3d
000001c0: 212c 8e3d b106 8d3d 6d88 8b3d 215a 8a3d
000001d0: 1eb5 893d f63b 893d 84dd 883d bbde 883d
000001e0: cc5b 893d dc4c 8a3d db51 8b3d 42f1 1b3d
000001f0: 28ff 1a3d 46f7 1b3d 24f7 1a3d 3735 1b3d
00000200: 5c5d 1c3d 4339 1b3d ba5b 193d 9707 1a3d
00000210: 2c85 1d3d 6e21 1d3d 18e2 1d3d 7d40 1e3d
00000220: 816c 1b3d e17d 193d 88d0 193d 8cdc 1a3d
00000230: 5d82 1c3d a57b 1b3d e677 1c3d ea96 1c3d
00000240: 5315 1c3d b5dc 193d fe5c 193d efa9 1a3d
00000250: 02c1 1b3d 1608 1b3d b1ea 1a3d 9e3e 1c3d
00000260: 9c40 1f3d 5024 1f3d 7352 1f3d 5280 203d
00000270: 0676 1e3d 2f1d 1c3d 6bd5 1c3d

Const_1 f4 [1, 159]
10.461579 6.692584 13.300225 0.023715783 0.031209175 0.049428683 0.049399614 0.028197026
0.02539326 0.02688231 0.022365239 0.027965501 0.013016004 -0.012728633 -0.031897403 -0.053064603
-0.065961644 -0.061266605 -0.063365825 -0.067714475 -0.045000132 -0.02946544 -0.027213711 -0.02387017
-0.02146045 -0.014338442 -0.01583294 0.0029315278 0.0025559487 0.0018236305 -0.0021217398 -0.002365482
-0.00013027905 -0.00031408833 0.000112186535 -0.00092670653 -0.0040468266 -0.0044938345 -0.0040357113 -0.0034236768
-0.00082762603 0.00027135172 -0.0006562356 0.0018336256 0.0038176426 0.0017822897 0.0005677398 0.0005961805
0.00097326236 0.0005679347 -0.0002130263 1.9821316 1.9797539 1.9781746 1.9774516 1.9775237
1.9785758 1.9809105 1.984715 1.9897448 1.9952259 2.0005343 2.0045245 2.0076897
2.0108469 2.0147498 2.0196462 2.0249562 2.0293481 2.0326805 2.0334358 2.0314703
2.027189 2.0216818 2.0164945 2.0127163 2.010927 2.0110652 2.0122936 2.013486
2.0146198 2.0153065 2.0156074 2.0149777 2.0133183 2.010654 2.0077949 7.865143
7.904292 7.952468 8.004566 8.069103 8.163441 8.292921 8.439177 8.568168
8.650613 8.667439 8.615442 8.522889 8.432116 8.368051 8.330993 8.309804
8.291251 8.249524 8.173262 8.080228 7.9893494 7.925005 7.9022775 7.9274077
7.992711 8.074643 8.144675 8.203765 8.252813 8.27196 8.251013 8.201586
8.142016 8.092243 8.071077 56.90023 56.65529 56.66067 56.417984 56.3218
55.951473 56.09126 56.22113 55.480892 55.740242 55.636845 55.952366 56.574398
57.17709 56.87147 56.610783 56.631474 56.96001 56.711483 57.090347 56.478226
56.69979 56.507877 57.03731 56.90159 56.802258 56.358673 56.38518 56.51237
56.86922 56.449894 56.254383 56.590122 57.019775 57.033043 57.320225
00000000: a162 2741 a629 d640 b9cd 5441 9a47 c23c
00000010: 62aa ff3c bb75 4a3d 4057 4a3d 73fd e63c
00000020: 8705 d03c 4a38 dc3c 4e37 b73c e817 e53c
00000030: 1441 553c c28b 50bc daa6 02bd 455a 59bd
00000040: e616 87bd b1f2 7abd f1c5 81bd e3ad 8abd
00000050: 0f52 38bd 8261 f1bc 4aef debc 608b c3bc
00000060: d3cd afbc c9eb 6abc 15b4 81bc e01e 403b
00000070: b481 273b e306 ef3a e30c 0bbb 3406 1bbb
00000080: 849b 08b9 39ac a4b9 b045 eb38 39ee 72ba
00000090: 3e9b 84bb 0441 93bb 003e 84bb c45f 60bb
000000a0: 0bf5 58ba 3644 8e39 3a07 2cba 4456 f03a
000000b0: 6a31 7a3b b89b e93a 5fd4 143a ff48 1c3a
000000c0: 8822 7f3a 74e1 143a d05f 5fb9 7db6 fd3f
000000d0: 9368 fd3f d334 fd3f 221d fd3f 7f1f fd3f
000000e0: f941 fd3f 7a8e fd3f 240b fe3f f5af fe3f
000000f0: 9063 ff3f c108 0040 214a 0040 fd7d 0040
00000100: b7b1 0040 a9f1 0040 e241 0140 e298 0140
00000110: d7e0 0140 7017 0240 d023 0240 9c03 0240
00000120: 77bd 0140 3c63 0140 3f0e 0140 58d0 0040
00000130: 07b3 0040 4bb5 0040 6bc9 0040 f4dc 0040
00000140: 88ef 0040 c8fa 0040 b6ff 0040 65f5 0040
00000150: 35da 0040 8eae 0040 b67f 0040 40af fb40
00000160: f6ef fc40 9e7a fe40 b412 0041 0c1b 0141
00000170: 749d 0241 ceaf 0441 de06 0741 3717 0941
00000180: e968 0a41 d5ad 0a41 dad8 0941 c15d 0841
00000190: f2e9 0641 89e3 0541 bf4b 0541 f5f4 0441
000001a0: f7a8 0441 0dfe 0341 aec5 0241 9d48 0141
000001b0: c0a8 ff40 a499 fd40 75df fc40 53ad fd40
000001c0: 4ac4 ff40 bd31 0141 9750 0241 9f42 0341
000001d0: 860b 0441 f359 0441 2604 0441 b239 0341
000001e0: b345 0241 d479 0141 2223 0141 d699 6342
000001f0: 049f 6242 87a4 6242 04ac 6142 8649 6142
00000200: 4fce 5f42 735d 6042 70e2 6042 6fec 5d42
00000210: 02f6 5e42 218c 5e42 39cf 5f42 2f4c 6242
00000220: 57b5 6442 637c 6342 7171 6242 a186 6242
00000230: 0dd7 6342 8fd8 6242 845c 6442 b4e9 6142
00000240: 96cc 6242 1108 6242 3526 6442 3a9b 6342
00000250: 8335 6342 486f 6142 6d8a 6142 ab0c 6242
00000260: 157a 6342 b1cc 6142 7d04 6142 495c 6242
00000270: 4014 6442 d621 6442 e947 6542

sequential/dense/BiasAdd/ReadVariableOp f4 [50]
-0.09123012 -0.071600296 -0.04038998 -0.0126156695 0.017567167 -0.029297912 -0.015334599 0.028278532
0.021473968 -0.09766889 -0.08546078 0.06694157 -0.019716563 0.010014894 -0.20203297 -0.0057349266
-0.090378456 -0.023214657 -0.01889217 -0.012755231 -0.039416086 -0.0016123326 0.033865523 0.067
-0.05846001 -0.012529282 -0.04828954 0.0039031827 -0.08866811 0.026222227 -0.16791116 0.042629544
-0.053290393 -0.018822165 0.058879733 0.025986396 0.12324443 -0.02047075 -0.055534758 0.04449331
-0.08818815 0.0033558514 -0.016895851 0.021547314 -0.024394715 0.028308364 -0.03910913 -0.035734948
-0.04657712 0.033676136
00000000: dbd6 babd 2da3 92bd f76f 25bd f4b1 4ebc
00000010: 05e9 8f3c 2d02 f0bc f83d 7bbc 61a8 e73c
00000020: 2dea af3c a106 c8bd 1006 afbd a918 893d
00000030: a184 a1bc 8315 243c bbe1 4ebe 0dec bbbb
00000040: 5718 b9bd aa2c bebc c1c3 9abc 51fb 50bc
00000050: c372 21bd e854 d3ba 93b6 0a3d 4c37 893d
00000060: c373 6fbd 9e47 4dbc 41cb 45bd 8acc 7f3b
00000070: a097 b5bd ffcf d63c e7f0 2bbe 519c 2e3d
00000080: 0747 5abd f130 9abc e02b 713d 6ce1 d43c
00000090: 9367 fc3d 46b2 a7bc 6a78 63bd 9e3e 363d
000000a0: fd9b b4bd d8ed 5b3b 2b69 8abc fe83 b03c
000000b0: 6dd7 c7bc f1e6 e73c e530 20bd cf5e 12bd
000000c0: a6c7 3ebd fdef 093d

sequential/dense/MatMul1 f4 [50, 159]
-0.03042359 -0.13780224 -0.026079088 -0.02669809 -0.08167377 -0.11488785 0.008809983 -0.18154296
0.1067206 -0.07831931 -0.09686361 0.0012480888 -0.08428328 -0.19113182 0.07679185 0.057350367
-0.08735646 0.17737395 -0.16271701 0.041827127 -0.21458614 0.21798818 -0.031683084 -0.097091034
-0.23076896 -0.22194889 -0.28750125 0.030831788 0.049955767 -0.14667551 -0.040556382 -0.05526318
-0.103112325 0.035853144 -0.11225714 0.010320392 0.03859889 0.027516337 0.0329171 0.042215217
-0.013932503 -0.15163448 0.11189134 -0.14281206 0.22231174 -0.122746 -0.096633546 0.07105373
-0.39754793 -0.041411977 -0.80993557 -0.17438477 0.0123093575 0.10617624 -0.04342269 -0.0620222
0.0052589835 0.03000653 0.0217529 -0.0011623768 -0.22085549 -0.0017776346 -0.035441816 -0.14862834
0.011182862 -0.12288681 0.01842092 0.06790236 0.17604984 -0.10026182 -0.007394172 0.12836735
0.06463625 -0.0349732 0.19812839 0.09885998 0.11706737 -0.027391732 0.17801495 0.043160226
0.033976596 -0.07771545 -0.21503963 -0.43146315 -0.35614076 0.033928223 0.7943864 0.014526118
-0.077037066 0.019913413 0.10844433 0.085145146 0.026326992 0.08239869 -0.1574747 0.12618041
0.05335395 -0.0029496355 0.08508274 -0.0153322015 0.13124013 0.06591425 -0.17512344 -0.052450415
-0.06538647 0.052024722 0.14573707 0.046298433 -0.16261743 0.15119673 0.11245406 -0.009363185
-0.21203412 -0.15925933 -0.14478375 0.018220944 -0.19002342 0.10669812 0.13092019 0.09565043
-0.2854694 0.0940536 0.4237794 -0.12822574 0.11222782 -0.23922871 -0.007314781 -0.008392866
0.077985555 0.029483246 0.05632302 -0.027893644 -0.023650311 -0.009153903 -0.06712272 -0.074013434
-0.0031975019 -0.10797541 0.1285222 0.03855279 0.078948125 -0.13939773 -0.023358217 0.14805433
0.11439797 0.081521384 -0.07865419 0.09263766 -0.07968538 -0.056402862 0.02752292 -0.06282663
-0.19717295 0.24857281 -0.008931385 -0.09701731 -0.031418517 -0.18495925 0.106863655 0.3679431
-0.038753614 0.0635743 -0.13537611 -0.099310726 -0.186089 -0.020947732 -0.023372611 -0.06334187
-0.04370805 -0.031507254 0.060598258 -0.14487244 -0.22063704 -0.085275635 -0.19895838 0.00083420443
0.10157048 0.13957517 -0.101415254 0.14983548 -0.10152957 0.26863122 -0.18476671 0.11887304
-0.57684743 0.28361392 0.0746306 -0.06616057 -0.13515344 0.158072 -0.09605423 -0.03214221
0.039856166 0.12558158 -0.08125279 0.043329854 0.14228965 -0.023200562 -0.045863874 -0.103903666
0.102824114 -0.13662605 0.0056869024 -0.08347782 -0.12198341 0.012180832 0.0832148 -0.24651767
-0.011358568 -0.2929633 -0.020594908 0.20709956 -0.063120626 0.00014849941 -0.120245315 0.13096522
-0.22852987 0.01290497 -0.15481828 -0.15939604 -0.26085922 -0.0576253 -0.035494924 0.03194579
0.07294485 -0.0011529585 -0.086088814 0.010017511 -0.09015961 0.17228511 0.18355364 0.06302938
0.08808026 0.15592131 0.08724734 0.06794695 0.035953082 -0.31347847 -0.28915316 -0.1864068
-0.21179746 0.06634305 0.30384004 0.4378213 0.29621848 -0.44071543 -0.04113831 0.096236676
0.0796785 0.02979178 0.1325861 -0.18568628 0.035924096 -0.12021884 0.19501357 0.11521962
00000000: e53a f9bc 081c 0dbe d0a3 d5bc f4b5 dabc
00000010: 9444 a7bd 524a ebbd bf57 103c 66e6 39be
00000020: 5490 da3d e065 a0bd 6e60 c6bd e996 a33a
00000030: b69c acbd 0fb8 43be 0c45 9d3d 38e8 6a3d
00000040: f2e7 b2bd 84a1 353e 4a9f 26be ec52 2b3d
00000050: 78bc 5bbe 4b38 5f3e 1fc6 01bd aad7 c6bd
00000060: b34e 6cbe 9246 63be 5d33 93be f292 fc3c
00000070: 6b9e 4c3d 1b32 16be 731e 26bd a55b 62bd
00000080: 8e2c d3bd bfda 123d 12e7 e5bd dd16 293c
00000090: df19 1e3d f169 e13c 15d4 063d dde9 2c3d
000000a0: 2745 64bc 1246 1bbe 4927 e53d 533d 12be
000000b0: b0a5 633e 4162 fbbd cfe7 c5bd 9e84 913d
000000c0: 678b cbbe 9b9f 29bd f057 4fbf ec91 32be
000000d0: 30ad 493c ee72 d93d fedb 31bd fe0a 7ebd
000000e0: 8d53 ac3b 41d0 f53c 2333 b23c e55a 98ba
000000f0: f127 62be 85ff e8ba 702b 11bd 0732 18be
00000100: 5338 373c 14ac fbbd 78e7 963c 6410 8b3d
00000110: 6946 343e 1256 cdbd cf4a f2bb bb72 033e
00000120: 0360 843d 0f40 0fbd 2be2 4a3e 1a77 ca3d
00000130: 04c1 ef3d a064 e0bc 8d49 363e c7c8 303d
00000140: 0b2b 0b3d 4729 9fbd 5933 5cbe bde8 dcbe
00000150: 1558 b6be 52f8 0a3d e85c 4b3f f4fe 6d3c
00000160: 9cc5 9dbd 7421 a33c 1018 de3d 9460 ae3d
00000170: b4ab d73c a5c0 a83d 0c41 21be 7035 013e
00000180: ac89 5a3d ac4e 41bb dc3f ae3d ea33 7bbc
00000190: d063 063e 0dfe 863d 8f53 33be 3fd6 56bd
000001a0: 57e9 85bd e017 553d 193c 153e 6da3 3d3d
000001b0: 2f85 26be 51d3 1a3e 504e e63d 0b68 19bc
000001c0: 791f 59be e114 23be 3142 14be 1744 953c
000001d0: 8095 42be 8b84 da3d f10f 063e 5fe4 c33d
000001e0: 0c29 92be 2d9f c03d 9df9 d83e 9c4d 03be
000001f0: b3d7 e53d 5ff8 74be d5b0 efbb 3b82 09bc
00000200: e4b6 9f3d d986 f13c f8b2 663d 3681 e4bc
00000210: 4cbe c1bc 41fa 15bc a377 89bd 5b94 97bd
00000220: 2e8d 51bb 3622 ddbd 539b 033e 88e9 1d3d
00000230: 8eaf a13d 47be 0ebe bb59 bfbc 8e9b 173e
00000240: 7c49 ea3d aff4 a63d 7315 a1bd d0b8 bd3d
00000250: 1732 a3bd b006 67bd bf77 e13c 40ab 80bd
00000260: b5e7 49be df89 7e3e f254 12bc 03b1 c6bd
00000270: b4b0 00bd f565 3dbe 55db da3d 0a63 bc3e
00000280: 1cbc 1ebd 3e33 823d 09a0 0abe 6c63 cbbd
00000290: 1d8e 3ebe 949a abbc eb77 bfbc 62b9 81bd
000002a0: 3607 33bd c00d 01bd e135 783d 7159 14be
000002b0: adee 61be fea4 aebd bfbb 4bbe 83ae 5a3a
000002c0: 2f04 d03d cbec 0e3e cdb2 cfbd 796e 193e
000002d0: bcee cfbd 088a 893e 7c33 3dbe b573 f33d
000002e0: 46ac 13bf d835 913e eed7 983d 317f 87bd
000002f0: aa65 0abe a0dd 213e 15b8 c4bd 8da7 03bd
00000300: 3840 233d 7598 003e dd67 a6bd a57a 313d
00000310: 61b4 113e 1b0f bebc c2db 3bbd 72cb d4bd
00000320: 7395 d23d b3e7 0bbe 3259 ba3b 6bf6 aabd
00000330: 70d2 f9bd 1d92 473c 856c aa3d 216f 7cbe
00000340: 4a19 3abc 49ff 95be a7b6 a8bc e811 543e
00000350: 6345 81bd 82b6 1b39 2d43 f6bd bf1b 063e
00000360: bc03 6abe 5e6f 533c af88 1ebe b738 23be
00000370: 578f 85be 8208 6cbd 2063 11bd 97d9 023d
00000380: 1c64 953d de1e 97ba 554f b0bd 7d20 243c
00000390: 9aa5 b8bd 826b 303e 7cf5 3b3e 8c15 813d
000003a0: 6c63 b43d d6a9 1f3e bcae b23d c527 8b3d
000003b0: 8a43 133d 4080 a0be e20b 94be 6de1 3ebe
000003c0: 6fe1 58be ddde 873d ec90 9b3e 1d2a e03e
000003d0: f3a9 973e 74a5 e1be a580 28bd bc17 c53d
000003e0: 7b2e a33d e40d f43c a7c4 073e 8b24 3ebe
000003f0: 2525 133d 4c35 f6bd a3b1 473e 44f8 eb3d

sequential/dense_1/MatMul f4 [30, 50]
0.08868172 0.122430936 0.012150248 -0.15952948 0.080497906 -0.03203862 -0.020036485 -0.21924062
-0.16814488 -0.15065311 0.019541796 0.06518824 0.043234404 0.034721464 0.15246119 0.072638065
-0.04501631 -0.05931752 -0.059683625 -0.15991099 -0.07912598 0.17302121 0.08527336 0.09191317
-0.13784134 0.06208109 0.1241902 0.13577601 0.22662973 0.16355479 -0.14482115 -0.02983468
0.015628677 0.049166404 -0.13225688 -0.096507646 -0.09608133 0.19918421 -0.05804756 0.21237698
0.073406175 0.094481364 -0.10761018 -0.18708128 0.0932738 0.16588919 -0.1376449 -0.20302752
-0.2729654 0.16296448 0.082585126 0.00530563 0.08504253 -0.22037216 -0.001652686 0.010056094
0.09367098 -0.07643487 0.036917277 0.04062146 0.16574366 0.014302147 0.08401227 0.16055399
-0.20094033 -0.19862486 0.089522965 0.09560516 -0.1478676 0.0453875 0.23478927 0.26614156
0.12716825 0.08044969 -0.13044284 0.19992587 0.03122255 0.18944943 0.14577223 -0.10954847
0.02493673 0.13775562 -0.1176952 -0.086862184 -0.13853914 -0.24916597 0.0032391336 -0.040307797
-0.13580228 -0.11064455 -0.060444314 0.123813644 -0.13675024 -0.08384789 0.043682907 -0.108880244
0.09800578 -0.06872892 -0.022851482 -0.04051135 -0.0019695177 -0.15959215 -0.095683046 0.017276559
0.1016878 -0.1230842 0.05682332 0.30230784 0.03266065 -0.0019481898 0.006093129 -0.30561993
-0.05666757 -0.064867176 -0.02114748 -0.06819538 -0.042989273 0.19256052 0.06067256 0.15465383
0.07725207 0.0017963883 0.04059931 0.1903283 0.09318057 0.16882661 -0.08564368 -0.027825227
0.097297564 0.006569186 0.015741162 0.091640435 0.08810203 0.08463716 -0.08837821 -0.31884038
-0.23853244 -0.26133928 -0.20748153 -0.14385808 0.08132312 -0.13115449 -0.0064976653 -0.021467518
0.08851837 0.07998364 0.20400538 -0.05870717 0.12608914 -0.22769763 -0.026272364 0.022275
-0.06641283 -0.043035284 0.05827876 0.034091637 -0.0694686 0.084631436 -0.095268026 0.25140297
0.0917442 -0.120561734 0.20988126 0.18034106 -0.1104999 0.22871128 -0.25481993 0.091506705
0.124584265 0.15904458 0.29532495 -0.02668764 0.10755974 0.1438125 -0.025780415 -0.17399748
0.0584443 0.015352456 0.030315313 0.035823837 -0.14576279 0.05416357 0.012298976 -0.02338046
0.08229185 -0.040671222 0.11338582 0.10560683 -0.16327855 -0.3255483 -0.16478974 -0.15928325
-0.029205618 -0.07795018 -0.17259027 0.14272891 -0.101053834 -0.14711554 0.13088135 0.02583996
-0.097085975 0.10069734 0.016114485 -0.052662086 -0.017242238 -0.025934963 -0.08871771 -0.064925015
-0.04152253 0.06663774 0.19795628 -0.01932164 -0.0191693 0.18753064 -0.08275209 -0.021797964
0.18525305 -0.055332035 0.11794181 -0.15407781 0.022525864 -0.10235694 -0.22855398 -0.019259024
0.0044259615 -0.09077745 0.014760267 0.11173343 -0.06685135 -0.20191006 0.1669454 0.0664681
0.18631545 0.027662087 -0.26370135 0.21286601 0.0026024305 0.25238177 0.116602354 0.35447684
0.0100976 0.41700664 -0.020272888 0.170746 -0.071535215 -0.076499484 0.20608747 0.01606048
-0.12471275 0.020736806 0.04000764 -0.21547508 -0.097504914 0.063850574 -0.00093212747 0.10054701
00000000: c39e b53d 12bd fa3d d511 473c b25b 23be
00000010: 16dc a43d ee3a 03bd 8e23 a4bc 9d80 60be
00000020: 2c2e 2cbe cf44 1abe 1e16 a03c 6981 853d
00000030: 8f16 313d 1838 0e3d c91e 1c3e 44c3 943d
00000040: 0663 38bd eef6 72bd d176 74bd b5bf 23be
00000050: cd0c a2bd 792c 313e cda3 ae3d f93c bc3d
00000060: 4826 0dbe be48 7e3d 6e57 fe3d de08 0b3e
00000070: a011 683e e87a 273e ff4b 14be dc67 f4bc
00000080: b607 803c b662 493d 596e 07be cda5 c5bd
00000090: 4ac6 c4bd f2f6 4b3e 47c3 6dbd 5a79 593e
000000a0: fa55 963d 727f c13d ba62 dcbd 3c92 3fbe
000000b0: 5606 bf3d dbde 293e c9f2 0cbe 72e6 4fbe
000000c0: 1fc2 8bbe 29e0 263e 6422 a93d dada ad3b
000000d0: c72a ae3d 3da9 61be f19e d8ba 51c2 243c
000000e0: 92d6 bf3d e389 9cbd 9236 173d b062 263d
000000f0: b5b8 293e 8d53 6a3c a00e ac3d 4468 243e
00000100: 4dc3 4dbe 5164 4bbe d157 b73d a3cc c33d
00000110: 9b6a 17be 3ee8 393d 996c 703e b543 883e
00000120: 6538 023e cfc2 a43d cf92 05be 5eb9 4c3e
00000130: 6fc6 ff3c 08ff 413e 5145 153e f35a e0bd
00000140: 1d48 cc3c cf0f 0d3e 2e0a f1bd cde4 b1bd
00000150: 34dd 0dbe 5d25 7fbe a547 543b ca19 25bd
00000160: c10f 0bbe 9c99 e2bd 7594 77bd 0292 fd3d
00000170: 4108 0cbe 71b8 abbd d9ec 323d 9bfc debd
00000180: 41b7 c83d bfc1 8cbd 0833 bbbc 3bef 25bd
00000190: 0613 01bb 206c 23be 79f5 c3bd 9287 8d3c
000001a0: b141 d03d 9213 fcbd 92bf 683d 18c8 9a3e
000001b0: 2cc7 053d 675a ffba dfa8 c73b 377a 9cbe
000001c0: 411c 68bd 15d9 84bd 7b3d adbc 05aa 8bbd
000001d0: 8515 30bd 962e 453e ca83 783d 935d 1e3e
000001e0: 5536 9e3d ca74 eb3a 764b 263d 6ce5 423e
000001f0: 74d5 be3d e2e0 2c3e f465 afbd bbf1 e3bc
00000200: f243 c73d 5442 d73b 9cf3 803c fbad bb3d
00000210: d66e b43d 3f56 ad3d a3ff b4bd 0c3f a3be
00000220: d941 74be 43ce 85be 0a76 54be 884f 13be
00000230: bc8c a63d 5d4d 06be 5eea d4bb a6dc afbc
00000240: 1f49 b53d 76ce a33d c9e6 503e ee76 70bd
00000250: 831d 013e 9129 69be 2439 d7bc 107a b63c
00000260: 7303 88bd c445 30bd b6b5 6e3d aca3 0b3d
00000270: 8e45 8ebd 3f53 ad3d e21b c3bd e4b7 803e
00000280: 62e4 bb3d 12e9 f6bd 1deb 563e 54ab 383e
00000290: c64d e2bd 4a33 6a3e c277 82be de67 bb3d
000002a0: 0926 ff3d 95dc 223e d534 973e 0aa0 dabc
000002b0: 4848 dc3d 9643 133e 7331 d3bc 652c 32be
000002c0: 4a63 6f3d de88 7b3c d257 f83c 04bc 123d
000002d0: d742 15be 9fda 5d3d a581 493c 6188 bfbc
000002e0: a188 a83d de96 26bd d336 e83d 6548 d83d
000002f0: 7e32 27be 44ae a6be a4be 28be 261b 23be
00000300: 9f40 efbc 58a4 9fbd 81bb 30be 8727 123e
00000310: 50f5 cebd 75a5 16be c305 063e 53ae d33c
00000320: 03d5 c6bd 683a ce3d 8602 843c 33b4 57bd
00000330: 983f 8dbc 8f75 d4bc a1b1 b5bd 68f7 84bd
00000340: 8713 2abd 5e79 883d 0db5 4a3e 6a48 9ebc
00000350: f008 9dbc 0808 403e ee79 a9bd a591 b2bc
00000360: fab2 3d3e d8a3 62bd 7a8b f13d 93c6 1dbe
00000370: 2988 b83c 84a0 d1bd 0e0a 6abe 1ac5 9dbc
00000380: a807 913b 87e9 b9bd 0cd5 713c 7fd4 e43d
00000390: 5ce9 88bd 83c1 4ebe bcf3 2a3e 6d20 883d
000003a0: 7ac9 3e3e 9a9b e23c dd03 87be 8cf9 593e
000003b0: 8a8d 2a3b 2f38 813e 37cd ee3d fd7d b53e
000003c0: 6770 253c e581 d53e 5413 a6bc 0ad8 2e3e
000003d0: 0e81 92bd c3ab 9cbd 9808 533e 4591 833c
000003e0: 6669 ffbd 3ce0 a93c 0ddf 233d 80a5 5cbe
000003f0: a8b0 c7bd 17c4 823d 045a 74ba 97eb cd3d

sequential/dense_2/MatMul f4 [12, 30]
0.10082004 0.03763886 -0.016066939 -0.053879946 0.24100314 0.09497807 -0.056287818 0.026739491
0.07428822 -0.08421578 -0.07541152 -0.13877913 0.049411695 -0.055362504 0.019493159 0.019046916
0.19481564 -0.058743514 -0.059468485 0.18336123 -0.08199964 -0.068229765 -0.066551134 -0.026359769
-0.054960616 -0.10798869 -0.13519947 -0.25668117 -0.042135365 0.061983798 0.015479423 -0.08159614
-0.008225331 0.012753107 -0.0625164 0.08122769 -0.0043405723 -0.09800345 0.09147418 0.034084585
0.08562139 0.10425508 0.011301275 -0.099220715 -0.07671358 0.17105441 0.11306768 0.05343066
-0.21718627 0.11384515 -0.04072647 -0.065115295 0.040205367 -0.02614503 0.04568213 -0.07979549
-0.13445999 -0.16429466 0.014681799 0.07849498 0.01520332 -0.049038548 0.060653236 -0.0358628
-0.031603456 -0.09532322 0.02246558 -0.10984798 0.0027758463 0.034086924 -0.050437257 -0.011053402
-0.050432283 -0.10120431 0.0064598657 0.0754012 -0.01207143 -0.051477164 -0.14672054 0.13774784
0.0011852672 0.08014393 0.045174386 -0.014075671 0.044980675 -0.030924493 -0.03455904 -0.21270931
0.028477699 -0.01046862 0.02169859 -0.029616108 0.048029684 0.003130351 -0.048825823 0.012227343
0.0783297 -0.15274313 -0.0061509917 0.041451667 -0.014780821 -0.07533254 0.00054955616 -0.07501306
0.049892742 -0.0070544085 -0.05189072 0.038389742 -0.11030494 0.10833059 -0.07205358 0.061827864
0.03183478 -0.024080373 0.008616895 0.07240944 0.022987219 -0.17709279 0.021808399 -0.116591625
0.019328399 0.15793458 0.11220317 0.034713637 -0.024260206 0.00087463274 0.08009934 -0.19060618
0.041465472 0.05017564 -0.018754862 -0.10922983 0.09656141 -0.005647656 -0.0036249065 -0.05057
-0.087178655 0.09138319 -0.12015857 0.10061755 -0.036831208 0.042746168 -0.04838231 -0.00021055044
-0.039443143 0.049900822 0.05645394 -0.073559344 -0.058082256 -0.07684123 0.04756269 0.14946653
0.10991758 0.022200147 -0.0077794725 -0.018315721 -0.02167265 -0.19767524 -0.07418356 0.028428202
0.010458048 -0.098627694 0.1338741 0.06817925 0.051851194 -0.079497606 -0.14534567 0.088177174
-0.08462717 0.056820113 -0.0048297285 -0.025246559 -0.047756854 0.009832225 0.026154537 0.024097601
-0.00897442 -0.10117636 0.02248692 -0.024877911 -0.1006842 0.061645728 -0.066011064 -0.046340317
-0.010027071 -0.047821343 0.007423646 -0.14677352 -0.060162656 0.06439951 0.021418361 0.0076528075
0.105891444 0.044755418 -0.0037878826 -0.09434209 -0.14700347 0.07371987 -0.032792892 0.0989594
-0.0135953585 -0.022481492 0.02051017 -0.0034231483 0.09657466 0.01550668 0.029124591 -0.15980037
0.08342853 0.012922102 -0.17527603 0.052321408 -0.019377183 0.032394372 0.04388126 -0.059477173
0.12956189 -0.20558712 -0.02010484 0.057551507 -0.05690548 0.09458881 0.06075428 0.096621305
-0.04301065 -0.07299928 -0.051885553 -0.026839174 -0.008406718 0.014426958 -0.024758711 -0.031019343
0.03638967 -0.052185774 -0.005623568 0.008438038 -0.009804292 -0.1361259 0.026119877 -0.041589
-0.023521101 0.06401254 -0.02394667 0.079210505 0.115756676 -0.060629707 0.12197557 -0.17770362
0.0126097435 0.092736155 0.06249274 0.06654108 -0.017952204 0.043106776 -0.035071418 -0.0203942
00000000: bd7a ce3d 352b 1a3d d09e 83bc 38b1 5cbd
00000010: 87c9 763e dd83 c23d 0e8e 66bd c70c db3c
00000020: 6c24 983d 5379 acbd 5b71 9abd 1e1c 0ebe
00000030: eb63 4a3d cbc3 62bd 1eb0 9f3c 4708 9c3c
00000040: c07d 473e 0a9d 70bd 3a95 73bd 0cc3 3b3e
00000050: 6def a7bd 0cbc 8bbd f64b 88bd 71f0 d7bc
00000060: 621e 61bd 2d29 ddbd bb71 0abe b76b 83be
00000070: 2296 2cbd b9e2 7d3d 689d 7d3c e11b a7bd
00000080: 8ac3 06bc 68f2 503c 9908 80bd b45a a63d
00000090: 5c3b 8ebb 08b6 c8bd d156 bb3d 479c 0b3d
000000a0: 445a af3d b083 d53d fc28 393c 3b34 cbbd
000000b0: 021c 9dbd e328 2f3e 0790 e73d 1cda 5a3d
000000c0: 1466 5ebe a527 e93d cdd0 26bd 2b5b 85bd
000000d0: 62ae 243d 1a2e d6bc 2f1d 3b3d d16b a3bd
000000e0: e1af 09be dc3c 28be ee8b 703c fac1 a03d
000000f0: 5917 793c a5dc 48bd 876f 783d dfe4 12bd
00000100: a072 01bd d238 c3bd bc09 b83c faf7 e0bd
00000110: f9ea 353b bb9e 0b3d 4c97 4ebd 5419 35bc
00000120: 1592 4ebd 3544 cfbd 48ad d33b f26b 9a3d
00000130: 3fc7 45bc b8d9 52bd e93d 16be c50d 0d3e
00000140: f85a 9b3a 8022 a43d c708 393d a59d 66bc
00000150: a83d 383d 5d55 fdbc c88d 0dbd 78d0 59be
00000160: 104a e93c 9384 2bbc 3ec1 b13c 7b9d f2bc
00000170: c6ba 443d 9326 4d3b 96fd 47bd 3255 483c
00000180: 526b a03d b268 1cbe 428e c9bb 39c9 293d
00000190: 422b 72bc f247 9abd 1710 103a 72a0 99bd
000001a0: 555c 4c3d ab28 e7bb 5d8b 54bd 903e 1d3d
000001b0: 8ee7 e1bd 6edc dd3d d490 93bd 373f 7d3d
000001c0: 3065 023d 3444 c5bc e12d 0d3c 674b 943d
000001d0: b14f bc3c d057 35be 87a7 b23c 97c7 eebd
000001e0: 9756 9e3c 9ab9 213e c7ca e53d e32f 0e3d
000001f0: 57bd c6bc 9c47 653a 1f0b a43d 442e 43be
00000200: b3d7 293d f984 4d3d cca3 99bc e4b3 dfbd
00000210: fdc1 c53d f90f b9bb d78f 6dbb 7d22 4fbd
00000220: b98a b2bd 1c27 bb3d b215 f6bd 9310 ce3d
00000230: 52dc 16bd 9b16 2f3d 872c 46bd 34c7 5cb9
00000240: 228f 21bd ce64 4c3d 3f3c 673d 48a6 96bd
00000250: a9e7 6dbd ef5e 9dbd 18d1 423d c10d 193e
00000260: 781c e13d 15dd b53c f2ea febb da0a 96bc
00000270: d78a b1bc 616b 4abe 8ded 97bd 43e2 e83c
00000280: 3c58 2b3c 51fd c9bd 4b16 093e 90a1 8b3d
00000290: eb61 543d a4cf a2bd 7fd5 14be 3c96 b43d
000002a0: 0251 adbd 35bc 683d b342 9ebb dfd1 cebc
000002b0: b19c 43bd 5717 213c 0a42 d63c 5568 c53c
000002c0: 7209 13bc 8d35 cfbd 7d36 b83c c3cc cbbc
000002d0: 8533 cebd 3b80 7c3d cf30 87bd 58cf 3dbd
000002e0: 9648 24bc 50e0 43bd 0e42 f33b cc4b 16be
000002f0: 1e6d 76bd e4e3 833d 8f75 af3c 67c4 fa3b
00000300: 9ddd d83d 7551 373d 203e 78bb 6d36 c1bd
00000310: 1488 16be 71fa 963d d751 06bd 3aab ca3d
00000320: 11bf 5ebc 1b2b b8bc f204 a83c e656 60bb
00000330: efc8 c53d bb0f 7e3c b296 ee3c b5a2 23be
00000340: 94dc aa3d 39b7 533c 8f7b 33be f94e 563d
00000350: e6bc 9ebc f6af 043d d6bc 333d 569e 73bd
00000360: dfab 043e 6e85 52be e8b2 a4bc 21bb 6b3d
00000370: b815 69bd c7b7 c13d 7bd9 783d 64e1 c53d
00000380: ef2b 30bd a680 95bd f285 54bd d4dd dbbc
00000390: 55bc 09bc 0c5f 6c3c c8d2 cabc 471c febc
000003a0: 560d 153d c0c0 55bd e845 b8bb b23f 0a3c
000003b0: 2ea2 20bc 9764 0bbe 5af9 d53c 3a59 2abd
000003c0: 53af c0bc 0219 833d cf2b c4bc 1e39 a23d
000003d0: d611 ed3d db56 78bd 54ce f93d f0f7 35be
000003e0: 1999 4e3c 74ec bd3d 63f8 7f3d b146 883d
000003f0: 8010 93bc bb90 303d 0ca7 0fbd bd11 a7bc
