plugins/main/src/androidTest/resources/glucose_model.tflite (tflite, 52000 bytes, 5 tensors)

sequential_1/dense_3/MatMul;sequential_1/dense_3/BiasAdd f4 [12]
0	0x42f076b3	120.231834
1	0x42f04e73	120.15322
2	0x42f0062b	120.01205
3	0x42efdbba	119.92915
4	0x42efd501	119.91602
5	0x42efd212	119.91029
6	0x42efb715	119.85758
7	0x42efdbd5	119.92936
8	0x42efee9c	119.966034
9	0x42efd4f4	119.915924
10	0x42ef95e8	119.792786
11	0x42ef20ec	119.5643

sequential_1/normalization_3/truediv;sequential_1/normalization_3/Sqrt f4 [1, 255]
0	0x3e153b0f	0.1457331
1	0x3cc705c5	0.024294743
2	0x3cc6c561	0.02426404
3	0x3cc6a885	0.024250278
4	0x3cc69d10	0.024244815
5	0x3cc69e6a	0.02424546
6	0x3cc6c4f7	0.024263842
7	0x3cc71476	0.024301749
8	0x3cc769eb	0.024342498
9	0x3cc7b184	0.024376638
10	0x3cc7d75c	0.024394684
11	0x3cc7eb6e	0.024404254
12	0x3cc7c113	0.024384057
13	0x3cc788c1	0.024357202
14	0x3cc7406d	0.024322713
15	0x3cc726fe	0.024310585
16	0x3cc71fa0	0.024307072
17	0x3cc72287	0.024308456
18	0x3cc74503	0.0243249
19	0x3cc7a1eb	0.0243692
20	0x3cc7fefe	0.024413582
21	0x3cc83e6c	0.024443828
22	0x3cc862b0	0.02446112
23	0x3cc8753a	0.02446996
24	0x3cc84418	0.024446532
25	0x3f583503	0.8445589
26	0x3f569b9d	0.838312
27	0x3f57173e	0.8401984
28	0x3f56cef1	0.8390952
29	0x3f592c72	0.84833443
30	0x3f58f1bc	0.8474386
31	0x3f59b3ac	0.8503978
32	0x3f58a215	0.8462232
33	0x3f565b8c	0.8373344
34	0x3f5603c5	0.835995
35	0x3f564556	0.8369955
36	0x3f571ff5	0.8403314
37	0x3f57c0eb	0.84278744
38	0x3f5699ae	0.83828247
39	0x3f56e5a7	0.8394417
40	0x3f570307	0.83988994
41	0x3f5988b4	0.8497422
42	0x3f59beb8	0.8505664
43	0x3f5a8d17	0.85371536
44	0x3f58de2a	0.84713995
45	0x3f5696ff	0.8382415
46	0x3f565988	0.83730364
47	0x3f568976	0.838035
48	0x3f574b3b	0.8409917
49	0x40c9f20f	6.310798
50	0x40cd62f5	6.4183297
51	0x40cbb346	6.365634
52	0x40ca6fbf	6.326141
53	0x40cb299c	6.3488293
54	0x40cbe51d	6.371718
55	0x40cb09f2	6.344964
56	0x40c7343d	6.2251267
57	0x40c99246	6.2991056
58	0x40ca00b6	6.312587
59	0x40cab77c	6.334898
60	0x40cb5424	6.354021
61	0x40c9b679	6.3035245
62	0x40ccdc74	6.401911
63	0x40ccf9cc	6.405493
64	0x40caa61e	6.332778
65	0x40ccf37a	6.4047213
66	0x40cc4201	6.383057
67	0x40cc01af	6.3752055
68	0x40c81b70	6.2533493
69	0x40ca2da7	6.318073
70	0x40c9f220	6.3108063
71	0x40cbecf4	6.372675
72	0x40cc39ae	6.382041
73	0x3fdac5d8	1.7091627
74	0x3fd5195c	1.6648364
75	0x3fd3d3fd	1.6549069
76	0x3fda9c2a	1.7078907
77	0x3fe401f8	1.7813101
78	0x3fd5bd5c	1.6698413
79	0x3fd7410e	1.6816728
80	0x3fdba137	1.7158574
81	0x3fc646fd	1.5490414
82	0x3fe0c116	1.7558925
83	0x3fd4a2ae	1.6612146
84	0x3fd50436	1.664191
85	0x3fda9350	1.7076206
86	0x3fd39966	1.6531188
87	0x3fd40ad7	1.6565808
88	0x3fdc946d	1.7232796
89	0x3fe26b27	1.768895
90	0x3fd357ee	1.6511209
91	0x3fd6f661	1.6793939
92	0x3fdbb9a4	1.7166028
93	0x3fc6d303	1.5533146
94	0x3fde296a	1.7356389
95	0x3fd37e07	1.6522835
96	0x3fd41b6b	1.6570867
97	0x3fdaef98	1.7104368
98	0x3fd44b43	1.6585468
99	0x3fd38868	1.6526003
100	0x3fda0c8e	1.7035081
101	0x3fe07f67	1.753888
102	0x3fd33ba2	1.6502573
103	0x3fd50203	1.6641239
104	0x3fda1117	1.7036465
105	0x3fc75aaf	1.557455
106	0x3fdd7a82	1.7303011
107	0x3fd280b9	1.6445533
108	0x3fd1147d	1.6334378
109	0x4102b7e5	8.169896
110	0x4102b3e6	8.1689205
111	0x4102b6a0	8.169586
112	0x4102afee	8.167952
113	0x4102afb5	8.167897
114	0x4102ab09	8.166757
115	0x4102a1d0	8.164505
116	0x41028fb8	8.160088
117	0x410286c2	8.1579
118	0x4102848f	8.157363
119	0x410280bd	8.15643
120	0x410277a1	8.154206
121	0x41026e3e	8.151915
122	0x4102646e	8.149519
123	0x41026419	8.149438
124	0x41025d74	8.147816
125	0x41026021	8.148469
126	0x41025fb6	8.148367
127	0x41025aad	8.147138
128	0x41024b93	8.143451
129	0x410243fb	8.141597
130	0x4102426e	8.141218
131	0x410241f7	8.141105
132	0x41023e02	8.140139
133	0x41023b05	8.139409
134	0x41023682	8.138308
135	0x41023959	8.139001
136	0x410236c9	8.138375
137	0x41023fb2	8.140551
138	0x4102422f	8.141158
139	0x41023d41	8.139955
140	0x41022cb6	8.135916
141	0x410222df	8.133513
142	0x41021c15	8.131856
143	0x410215a2	8.130281
144	0x41020c93	8.12807
145	0x3e1a389e	0.1506066
146	0x3e0c9b0d	0.13731022
147	0x3e13f82d	0.1445014
148	0x3e1114c1	0.14168073
149	0x3e123bdf	0.14280652
150	0x3e10a66d	0.14125986
151	0x3e105c79	0.14097776
152	0x3e13fd12	0.14452007
153	0x3e092784	0.1339398
154	0x3e17ada9	0.1481234
155	0x3e0b01f6	0.13574967
156	0x3e0f3338	0.13984382
157	0x3e18e811	0.14932276
158	0x3e0bf2f2	0.13666895
159	0x3e13bb47	0.1442691
160	0x3e12583a	0.14291468
161	0x3e1100f7	0.14160524
162	0x3e10d8db	0.14145224
163	0x3e0f1d0b	0.13975923
164	0x3e1542f5	0.14576323
165	0x3e093c9a	0.13402024
166	0x3e157a0e	0.14597341
167	0x3e0a2cc5	0.1349364
168	0x3e0e3759	0.13888301
169	0x3e1a0ea4	0.15044647
170	0x3e0b4b90	0.13603044
171	0x3e131303	0.14362721
172	0x3e0ff534	0.14058381
173	0x3e0f76d3	0.14010172
174	0x3e117316	0.14204058
175	0x3e0e9b4e	0.13926432
176	0x3e132681	0.14370157
177	0x3e0a5f75	0.13512976
178	0x3e143703	0.1447411
179	0x3e09ad34	0.13444978
180	0x3e0d4e26	0.13799343
181	0x3d652cd6	0.055950962
182	0x3d64e781	0.05588484
183	0x3d649fd2	0.05581648
184	0x3d6457d2	0.055747814
185	0x3d642000	0.05569458
186	0x3d640b35	0.05567475
187	0x3d640e45	0.05567767
188	0x3d64185d	0.055687297
189	0x3d641dc7	0.05569246
190	0x3d641f81	0.055694107
191	0x3d6429ab	0.0557038
192	0x3d644514	0.05572994
193	0x3d645675	0.055746514
194	0x3d64455a	0.0557302
195	0x3d641895	0.055687506
196	0x3d63d08a	0.0556188
197	0x3d638795	0.055549223
198	0x3d635b04	0.05550672
199	0x3d6346e1	0.055487517
200	0x3d6342f6	0.05548378
201	0x3d634b89	0.055491958
202	0x3d636044	0.055511728
203	0x3d63840f	0.055545863
204	0x3d63b7e8	0.05559531
205	0x3d63e2e8	0.055636317
206	0x3d63ebc9	0.055644784
207	0x3d63cdf9	0.055616353
208	0x3d63830d	0.0555449
209	0x3d632ed1	0.05546457
210	0x3d62fd37	0.055417266
211	0x3d62ee82	0.05540324
212	0x3d62ee72	0.05540318
213	0x3d62eb15	0.055399973
214	0x3d62e435	0.055393416
215	0x3d62eab0	0.055399597
216	0x3d6303ad	0.055423427
217	0x3d5286d5	0.051398117
218	0x3d523b67	0.05132618
219	0x3d51d881	0.051231865
220	0x3d522591	0.051305357
221	0x3d53d46b	0.05171625
222	0x3d543684	0.051809803
223	0x3d53f6b3	0.051748943
224	0x3d540e3a	0.05177138
225	0x3d5330d4	0.051560238
226	0x3d537e2d	0.051634002
227	0x3d5378eb	0.05162899
228	0x3d528521	0.051396493
229	0x3d51ff97	0.05126914
230	0x3d51b8c1	0.051201586
231	0x3d516ddf	0.051130172
232	0x3d51ba59	0.051203106
233	0x3d537a60	0.051630378
234	0x3d53e025	0.051727433
235	0x3d5395d0	0.051656544
236	0x3d53b916	0.051690184
237	0x3d52d7a4	0.051475182
238	0x3d532ada	0.05155454
239	0x3d533e23	0.05157293
240	0x3d525987	0.05135491
241	0x3d51c183	0.051209938
242	0x3d5187a6	0.051154755
243	0x3d513f7b	0.05108593
244	0x3d51ac8d	0.051189948
245	0x3d538f2d	0.051650215
246	0x3d53dcca	0.051724233
247	0x3d537cb6	0.051632605
248	0x3d53a747	0.0516732
249	0x3d52f335	0.05150147
250	0x3d533906	0.051568054
251	0x3d53346c	0.051563665
252	0x3d526ed9	0.051375244
253	0x3d392c7c	0.04520844
254	0x3ce95982	0.028485063

Const_1 f4 [1, 255]
0	0x41374ef8	11.4567795
1	0x42f0ee11	120.46497
2	0x42f0d4ee	120.41588
3	0x42f0ba6a	120.36409
4	0x42f0b601	120.35548
5	0x42f0ba21	120.36353
6	0x42f0b966	120.36211
7	0x42f0cd9b	120.40157
8	0x42f0eb48	120.45953
9	0x42f0fb7c	120.49118
10	0x42f0f12c	120.47104
11	0x42f0d1dd	120.40989
12	0x42f0b72c	120.35776
13	0x42f0a4f7	120.3222
14	0x42f08f36	120.27971
15	0x42f0744a	120.22713
16	0x42f07161	120.22144
17	0x42f075a3	120.22976
18	0x42f07628	120.230774
19	0x42f08774	120.26456
20	0x42f0a3b9	120.31977
21	0x42f0b5e9	120.35529
22	0x42f0b3ad	120.35093
23	0x42f09e7d	120.30955
24	0x42f08896	120.26677
25	0xbbf2381a	-0.0073919417
26	0xbc212edc	-0.009837832
27	0xbc292828	-0.010324515
28	0xbae3a4ba	-0.0017367818
29	0x3ad2cc43	0.0016082603
30	0xb993c02c	-0.00028181204
31	0x3c012fcf	0.007884934
32	0x3c3dc776	0.0115832
33	0x3bcfdbc1	0.0063433354
34	0xbb83aeff	-0.004018664
35	0xbc486486	-0.012230998
36	0xbc2b5adb	-0.010458673
37	0xbbe7fdc3	-0.0070798113
38	0xbc0b66ba	-0.008508379
39	0xbc2c34ff	-0.010510682
40	0xba963f85	-0.0011463022
41	0x3adc686d	0.0016815789
42	0x394c7f08	0.00019502279
43	0x3bdd2bd4	0.0067496095
44	0x3c351860	0.011053175
45	0x3be8321b	0.007086051
46	0xba6014dd	-0.0008548031
47	0xbc079cff	-0.008277177
48	0xbc0c44ac	-0.0085612945
49	0x3a3f137c	0.0007288975
50	0xba003c2e	-0.000489178
51	0xb8cc211a	-9.733644e-05
52	0x3ae11f3d	0.0017175447
53	0x3a2f606f	0.000669009
54	0xb9c63029	-0.00037801385
55	0x3ad61606	0.0016333468
56	0x3a41e553	0.00073965377
57	0xba895c1a	-0.0010479719
58	0xbb07d11e	-0.0020724009
59	0xbad7480e	-0.0016424672
60	0x39b9d7ef	0.00035446833
61	0x3a31261a	0.0006757692
62	0xb995cbd2	-0.00028571353
63	0xb9d1f506	-0.00040046143
64	0x3af57b45	0.0018728754
65	0x3a14431e	0.0005655753
66	0xb99be05b	-0.00029731062
67	0x3aabd31e	0.0013109182
68	0x3a61a165	0.00086071185
69	0xba4ffda8	-0.0007934221
70	0xbad02a4d	-0.0015881747
71	0xbac292b2	-0.0014844744
72	0xb86e5599	-5.682334e-05
73	0x3e37137a	0.17878523
74	0x3e38df81	0.1805401
75	0x3e3a65da	0.18202916
76	0x3e3618ff	0.17782973
77	0x3e34682d	0.17617865
78	0x3e3ac733	0.18240051
79	0x3e38fc9d	0.18065114
80	0x3e3c5546	0.18391904
81	0x3e466c26	0.19377193
82	0x3e38c108	0.18042386
83	0x3e3e1da9	0.18566002
84	0x3e3ac501	0.18239214
85	0x3e3711d0	0.17877889
86	0x3e38daad	0.18052168
87	0x3e39bf74	0.1813944
88	0x3e345873	0.17611866
89	0x3e34b8b2	0.1764858
90	0x3e3b6578	0.18300426
91	0x3e3922b3	0.18079643
92	0x3e3b95c7	0.18318854
93	0x3e453474	0.1925829
94	0x3e39b6cc	0.18136138
95	0x3e3ec298	0.18628919
96	0x3e3ad632	0.18245772
97	0x3e36f57a	0.1786708
98	0x3e38a4bb	0.1803159
99	0x3e3a269d	0.18178792
100	0x3e34d57c	0.17659563
101	0x3e351a0b	0.17685716
102	0x3e3bd7da	0.1834406
103	0x3e3ad5c9	0.18245615
104	0x3e3cbfc2	0.18432525
105	0x3e456254	0.1927579
106	0x3e3a3a69	0.18186344
107	0x3e3f8e53	0.18706636
108	0x3e3cc6ad	0.18435164
109	0x3e398258	0.18116128
110	0x3e398de5	0.18120535
111	0x3e39977c	0.18124193
112	0x3e39a064	0.1812759
113	0x3e39a4d4	0.18129283
114	0x3e399fd1	0.18127371
115	0x3e39978f	0.18124221
116	0x3e399149	0.18121828
117	0x3e398ebe	0.18120858
118	0x3e399c35	0.18125995
119	0x3e39b2cf	0.18134616
120	0x3e39c7d4	0.18142635
121	0x3e39e09a	0.18152085
122	0x3e39f009	0.18157972
123	0x3e39fbcb	0.18162458
124	0x3e3a052e	0.18166038
125	0x3e3a0742	0.18166831
126	0x3e39fe44	0.18163401
127	0x3e39f1f2	0.18158701
128	0x3e39e85a	0.18155041
129	0x3e39e248	0.18152726
130	0x3e39e9fb	0.18155663
131	0x3e39fa0e	0.18161795
132	0x3e3a0aab	0.18168132
133	0x3e3a2048	0.18176377
134	0x3e3a2d01	0.1818123
135	0x3e3a35b3	0.18184547
136	0x3e3a3ccb	0.18187253
137	0x3e3a3d39	0.18187417
138	0x3e3a3220	0.18183184
139	0x3e3a2520	0.18178225
140	0x3e3a1d29	0.18175186
141	0x3e3a1af1	0.1817434
142	0x3e3a26b7	0.18178831
143	0x3e3a39f9	0.18186177
144	0x3e3a4e57	0.18193947
145	0x3f3ea4de	0.7447032
146	0x3f5d8815	0.8653577
147	0x3f4df383	0.80449694
148	0x3f4d67a3	0.8023626
149	0x3f49d808	0.7884526
150	0x3f4c4369	0.7979036
151	0x3f51c913	0.8194744
152	0x3f471a37	0.77774376
153	0x3f613836	0.87976396
154	0x3f438f9d	0.7639101
155	0x3f5ebdcf	0.87008375
156	0x3f57b51a	0.84260714
157	0x3f423477	0.75861305
158	0x3f5eb3d5	0.8699315
159	0x3f4e3e75	0.8056405
160	0x3f4c2f6b	0.79759854
161	0x3f4cc54c	0.7998855
162	0x3f4d30b2	0.8015243
163	0x3f5558b0	0.8333845
164	0x3f44077b	0.76573914
165	0x3f61ce08	0.88205004
166	0x3f480c81	0.7814408
167	0x3f60e34d	0.87846833
168	0x3f591f3b	0.8481328
169	0x3f424d70	0.7589941
170	0x3f6068e8	0.87660074
171	0x3f5018fb	0.8128812
172	0x3f503bf2	0.8134147
173	0x3f50c559	0.8155113
174	0x3f4c3700	0.79771423
175	0x3f56dbca	0.8392912
176	0x3f473fb6	0.7783159
177	0x3f5ed456	0.8704275
178	0x3f4aa25a	0.7915398
179	0x3f628be0	0.8849468
180	0x3f5a7067	0.8532776
181	0x411a1a31	9.631394
182	0x411a2979	9.635125
183	0x411a4894	9.642719
184	0x411a6f3a	9.652155
185	0x411a989e	9.66226
186	0x411ac3a1	9.672761
187	0x411aebc4	9.68256
188	0x411b090a	9.689707
189	0x411b1426	9.692419
190	0x411b0ebe	9.691099
191	0x411b014e	9.687819
192	0x411afa63	9.68613
193	0x411afed6	9.687216
194	0x411b0bd0	9.690384
195	0x411b2e14	9.69875
196	0x411b5d79	9.71032
197	0x411b9397	9.723533
198	0x411bcbb8	9.737236
199	0x411bfbfc	9.74902
200	0x411c1ac9	9.756539
201	0x411c22e4	9.758518
202	0x411c1996	9.756247
203	0x411c06cc	9.751659
204	0x411bf627	9.747596
205	0x411bf057	9.746177
206	0x411bf8a2	9.748201
207	0x411c1e1b	9.75735
208	0x411c54f3	9.77074
209	0x411c9307	9.785895
210	0x411cd2e9	9.801492
211	0x411d0cdc	9.8156395
212	0x411d38c8	9.826363
213	0x411d4e05	9.831548
214	0x411d4ec8	9.831734
215	0x411d42f7	9.828849
216	0x411d3476	9.825308
217	0x427de7ff	63.47656
218	0x427d327a	63.299294
219	0x427ce00e	63.218803
220	0x427cbf26	63.18667
221	0x427c8675	63.131306
222	0x427ca58a	63.16166
223	0x427d6e29	63.35758
224	0x427d074a	63.25712
225	0x427cc3e8	63.191315
226	0x427cc688	63.19388
227	0x427d00d8	63.250824
228	0x427da9af	63.415707
229	0x427e240d	63.535206
230	0x427d6ac2	63.354256
231	0x427d1ac5	63.276142
232	0x427d020b	63.251995
233	0x427cd44e	63.20733
234	0x427cf52d	63.23943
235	0x427db5c6	63.427513
236	0x427d5314	63.33113
237	0x427d1083	63.266125
238	0x427d075d	63.25719
239	0x427d3be0	63.30847
240	0x427de8ec	63.477463
241	0x427e6211	63.595768
242	0x427da217	63.40829
243	0x427d459c	63.317978
244	0x427d2a86	63.291527
245	0x427cef15	63.23348
246	0x427d160f	63.27154
247	0x427de1af	63.470394
248	0x427d76aa	63.365883
249	0x427d335b	63.30015
250	0x427d3806	63.30471
251	0x427d6822	63.351692
252	0x427e0625	63.506
253	0x418315c3	16.385626
254	0x42028522	32.630013

sequential_1/dense_2/MatMul1 f4 [45, 255]
0	0x3c7b9472	0.015355216
1	0xbd6b90b1	-0.057511035
2	0xbd3b4227	-0.045717385
3	0x3d7353e0	0.05940616
4	0xbd51e30e	-0.051241927
5	0x3cc41676	0.023936491
6	0xbd32b7cb	-0.04363231
7	0xbd29bc9f	-0.04143965
8	0xbd1e3a2c	-0.038629696
9	0xbdcfde11	-0.10149778
10	0x3c9e8816	0.019352
11	0x3d9c8aa0	0.07643628
12	0x3d2fe121	0.04293931
13	0xbd6c59e6	-0.05770292
14	0xbb9845b9	-0.0046469835
15	0xbd91beff	-0.07116508
16	0xbe341030	-0.175843
17	0xbdbe711c	-0.09298918
18	0xbdaf14b0	-0.08548868
19	0x3d581de7	0.052762892
20	0xbd8bfe0b	-0.06835564
21	0xbdeea416	-0.11652391
22	0xbe08297e	-0.13297078
23	0xbe025b99	-0.12730254
24	0xbe7b408d	-0.24536343
25	0x3dc6fdf9	0.0971641
26	0xbd85e53e	-0.06537865
27	0xbe07c03c	-0.13256925
28	0xbdcce4d2	-0.100045815
29	0xbd0aa199	-0.033845518
30	0x3d963566	0.07334404
31	0xbe070dd1	-0.13188864
32	0x3de4571c	0.11149427
33	0x3ce0c6be	0.027438518
34	0x3b10d98e	0.002210233
35	0xbdc269a8	-0.094928086
36	0xbdfb3f7f	-0.1226797
37	0xbe1ca400	-0.15296936
38	0xbca6c48b	-0.02035739
39	0xbe002ed3	-0.12517862
40	0x3d2c5ef9	0.04208276
41	0xbdd85907	-0.105638556
42	0xbc1bd43d	-0.009511051
43	0xbcc7ac03	-0.024374014
44	0xbdc55a25	-0.09636334
45	0xbe3b2e84	-0.18279463
46	0xbe1ae466	-0.1512619
47	0x3c2f3199	0.010692977
48	0xbe9120b0	-0.2834525
49	0x3dece5b8	0.11567253
50	0x3baa8346	0.0052036373
51	0x3d631ce8	0.05544749
52	0xbd9db623	-0.077007554
53	0xbdc9b8df	-0.098497145
54	0x3dba09fd	0.09083936
55	0x3d4eaf01	0.050459865
56	0x3b8f3369	0.0043701422
57	0xbd4c1231	-0.049822036
58	0x3dd32040	0.103088856
59	0xbc061a5e	-0.008184997
60	0x3d347aa9	0.04406229
61	0xbe032cd4	-0.1281007
62	0x3e09be7a	0.13451567
63	0x3de918fa	0.11381717
64	0xbda769ab	-0.081744514
65	0x3cbc5f89	0.022994773
66	0xbe0c9a48	-0.13730729
67	0x3d43a600	0.04776573
68	0x3c33ff0d	0.010986102
69	0xbdd7e8d1	-0.10542453
70	0xbcfdb795	-0.030971328
71	0xbcb4fe82	-0.022094015
72	0xbd87fee1	-0.06640411
73	0x3da9f274	0.082981974
74	0xbdffc291	-0.124882825
75	0x3e39497d	0.1809444
76	0xbd8ed618	-0.06974429
77	0x3cf5ec1b	0.03001981
78	0xbe0f7812	-0.14010647
79	0xbd4ae15b	-0.049531322
80	0xbdfdb1c2	-0.1238742
81	0xbd0247fe	-0.03180694
82	0x3aef38f4	0.0018251226
83	0xbd255707	-0.0403662
84	0xbcdbf356	-0.02684943
85	0x3cd9aab7	0.026570661
86	0x3df4af85	0.1194754
87	0x3da57b0a	0.080801085
88	0x3da7edc2	0.081996456
89	0xbdc1ca09	-0.09462363
90	0xbd352066	-0.04422035
91	0x3d85e80f	0.06538402
92	0xbe23e867	-0.16006623
93	0xbcedee5a	-0.029044319
94	0xbddf9b99	-0.1091835
95	0x3d260f7f	0.040542122
96	0xbdd372fa	-0.103246644
97	0xbd9ee587	-0.077586226
98	0xbd5c5754	-0.05379422
99	0x3d84a2a4	0.06476334
100	0x3e831a56	0.2560603
101	0x3e65f9e9	0.22458614
102	0x3e200071	0.15625168
103	0x3e5c8074	0.21533376
104	0x3e02f158	0.12787378
105	0x3e436b1b	0.19083826
106	0x3e86bd0d	0.2631611
107	0x3de4f14a	0.11178835
108	0x3e0210c0	0.12701702
109	0x3dd40001	0.10351563
110	0x3d553363	0.05205096
111	0xbd821cee	-0.06353174
112	0xbdfeec27	-0.12447386
113	0xbd8012ba	-0.06253572
114	0x3d917fce	0.07104455
115	0x3ca3865c	0.019961528
116	0x3d9d1864	0.07670668
117	0xbd92331e	-0.07138656
118	0x3ddd44d3	0.10804143
119	0xbcd07bd9	-0.02544968
120	0xbd98e6ba	-0.074658826
121	0x3dbea34d	0.09308491
122	0x3ddd0ffc	0.107940644
123	0x3c2f7538	0.0107090995
124	0xbdf8e51f	-0.121530764
125	0xbccfb754	-0.025355972
126	0xbd4c6aa6	-0.049906395
127	0x3d60c0fd	0.054871548
128	0xbc1c461b	-0.009538199
129	0x3d988139	0.07446522
130	0x3d7d46d5	0.06183513
131	0x3dafee93	0.08590426
132	0x3ba01fe8	0.004886616
133	0xbe1ea4c7	-0.15492545
134	0xbc0dc299	-0.008652353
135	0x3c3e6190	0.01161994
136	0xbe003015	-0.12518342
137	0xbdca8cbf	-0.098901264
138	0xbd96b908	-0.07359511
139	0xbc41d6b1	-0.011830972
140	0xbdb6f416	-0.089332744
141	0x3d8a15f9	0.06742472
142	0x3d2b7f78	0.04186961
143	0xbd4e3e4d	-0.050352383
144	0x3da4b49f	0.08042263
145	0x3de06a15	0.109577335
146	0x3d50c705	0.05097105
147	0x3b3efb17	0.002914136
148	0xbddf0dcb	-0.10891303
149	0xbd139d12	-0.036038466
150	0xbca63d6a	-0.020292956
151	0x3d8af037	0.067840986
152	0xbd83b430	-0.064308524
153	0xbc95bd0d	-0.018278623
154	0xbcdd05a2	-0.026980225
155	0xbb88c87b	-0.0041742898
156	0xbcd8776f	-0.026424138
157	0x3bc66695	0.006054709
158	0x3d927d5a	0.07152815
159	0x3cd7c283	0.026337868
160	0xbc8bf139	-0.017082797
161	0xbdafc312	-0.085821286
162	0xbc45b838	-0.012067847
163	0x3db5d01e	0.08877586
164	0x3d555b50	0.052089036
165	0x3d559b83	0.05215026
166	0xbdfa9623	-0.122356676
167	0x3d96ef31	0.07369841
168	0xbdb267a2	-0.08711173
169	0xbd5953eb	-0.053058546
170	0x3e558874	0.20852834
171	0x3e36fabf	0.1786909
172	0x3bdbe10d	0.0067101778
173	0xbc186fa3	-0.00930396
174	0x3ca13c9d	0.019682223
175	0xbe6d13e0	-0.23152113
176	0xbc032416	-0.008004209
177	0xbe60b5b5	-0.21944316
178	0xbe0e909d	-0.13922353
179	0xbd0fd0e7	-0.035111334
180	0x3caecad9	0.02133696
181	0x3cd33ba6	0.025785279
182	0xbc00df11	-0.007865683
183	0x3de8a1ea	0.11359008
184	0xbe0975c1	-0.13423826
185	0x3d9add82	0.075617805
186	0x3d5842e0	0.052798152
187	0x3e04ca18	0.12967718
188	0xbd09fdcc	-0.033689305
189	0xbda52fb0	-0.08065736
190	0x3d735cda	0.059414722
191	0x3c4a0813	0.012331027
192	0x3dd4660e	0.10371028
193	0xbe1e4ea0	-0.1545968
194	0xbd35df7c	-0.044402584
195	0xbd7b934b	-0.061419766
196	0x3dc49f01	0.0960064
197	0x3c8aacf0	0.016928166
198	0xbdc07785	-0.093977965
199	0xbdcee666	-0.10102539
200	0x3e05f82f	0.13082956
201	0x3e0119c1	0.1260748
202	0xbd8bc2a1	-0.06824232
203	0xbdad4df6	-0.084621355
204	0xbd1abb94	-0.037776545
205	0x3dcb0516	0.099130794
206	0xbdd976fa	-0.10618396
207	0x3d334356	0.04376539
208	0x3c37cbc8	0.011218019
209	0x3df4df82	0.11956693
210	0x3de4c5f6	0.111705706
211	0xbdaf7e0f	-0.08568966
212	0x3d131bde	0.035915248
213	0xbda25e49	-0.0792814
214	0x3c910133	0.017700767
215	0x3ce7645e	0.028246101
216	0x3db8d69b	0.09025308
217	0xbd4582a5	-0.048220295
218	0x3d9fd654	0.07804552
219	0x3d0c2e94	0.034224108
220	0x3c593ed5	0.013259609
221	0x3d9ed247	0.07754951
222	0xbdc3c159	-0.095583625
223	0xbe202ccd	-0.1564209
224	0xbe0a7c17	-0.13523899
225	0x3c821f7f	0.01588416
226	0x3cb5432d	0.022126758
227	0x3d305e7a	0.04305885
228	0x3cf638c3	0.030056363
229	0xbc07d50f	-0.008290543
230	0xbe03bbba	-0.12864581
231	0xbdb2666a	-0.0871094
232	0x3c809ecd	0.015700722
233	0x3d6b7d20	0.057492375
234	0xbd573b03	-0.052546512
235	0x3dbc833b	0.09204718
236	0x3d2b2212	0.04178054
237	0x3d05c987	0.032662895
238	0x3d9c7e3f	0.07641267
239	0x3d7a2fdd	0.061080802
240	0x3e0797f4	0.1324156
241	0x3cf4a4ea	0.029863793
242	0x3d89dfbb	0.06732126
243	0x3d93f98e	0.07225333
244	0xbc75faa3	-0.01501337
245	0xbdf66bae	-0.12032257
246	0x3d1c6143	0.038178694
247	0xbe35dad7	-0.17759262
248	0xbe171a30	-0.14756083
249	0xbd349d97	-0.044095602
250	0x3da65f01	0.08123589
251	0x3df62971	0.12019623
252	0x3d48e6d1	0.04904825
253	0xbd97aef0	-0.074064136
254	0x3e0a08e9	0.13479961
255	0x3d53fad0	0.051752865

sequential_1/dense_3/MatMul f4 [12, 45]
0	0xc010d3b7	-2.262922
1	0xbf677521	-0.904131
2	0xbf386f12	-0.7204448
3	0xbfc7090c	-1.5549636
4	0x400bdecd	2.1854737
5	0xbfba61fc	-1.4561152
6	0x3fc26955	1.5188395
7	0x3fade563	1.3585628
8	0x3f78b57f	0.9715194
9	0x3ff3211d	1.899448
10	0x3f0f91ff	0.5608215
11	0xbf3aafe1	-0.7292462
12	0xc012a7a0	-2.291481
13	0x3f96ecc0	1.1791
14	0x3ff67e1c	1.9257236
15	0xbfcd7dbb	-1.6053995
16	0xbf87eaa3	-1.061848
17	0x3fd4c68f	1.6623095
18	0xc00a0cd7	-2.1570337
19	0xbfac3edb	-1.3456682
20	0x40023acf	2.0348394
21	0xbf80cd8b	-1.0062727
22	0x3ea97ae6	0.33101577
23	0x3fbd5a09	1.4793102
24	0x40114294	2.2696886
25	0xbf80abb2	-1.0052397
26	0x3f4b373f	0.79381174
27	0xbfd2d3c0	-1.6470871
28	0xbfdb6dbc	-1.7142863
29	0x3fd2dc88	1.6473551
30	0xbf63fc34	-0.89056706
31	0xbef536d4	-0.47893393
32	0x3fbb57c7	1.4636163
33	0x3eb9a6a8	0.3625996
34	0x3f820fd2	1.0161078
35	0x3fe2b17c	1.7710414
36	0xc034b196	-2.823339
37	0x3f303a8b	0.6883933
38	0xbf8f7edf	-1.1210593
39	0x40153bd4	2.3317766
40	0xbfa7eca2	-1.311909
41	0xbf5b25be	-0.85604465
42	0xbf58d010	-0.8469248
43	0x3fa18957	1.2620038
44	0x400c9118	2.1963558
45	0xc00ecbdf	-2.2311933
46	0xbf514483	-0.81745166
47	0xbf89f0e1	-1.0776635
48	0xbfa8dc3d	-1.3192211
49	0x3ff5b461	1.9195672
50	0xbfc750ee	-1.5571573
51	0x3fd02f55	1.6264445
52	0x3faa2319	1.3291961
53	0x3f8220ed	1.0166298
54	0x3fc01be4	1.5008512
55	0x3f34f5e1	0.7068768
56	0xbf72f893	-0.94910544
57	0xbffa35d6	-1.954768
58	0x3fbac8ff	1.4592589
59	0x40014679	2.0199263
60	0xbfd3524d	-1.6509491
61	0xbf9c436a	-1.2208073
62	0x3fd7fa7f	1.687332
63	0xbfe70688	-1.8048868
64	0xbfb7c55f	-1.4357108
65	0x3ff1f9ec	1.8904395
66	0xbf7fc5a2	-0.9991094
67	0x3f7fee0f	0.99972624
68	0x3fc62bfc	1.5482173
69	0x40049f4e	2.0722232
70	0xbf37b0d0	-0.7175417
71	0x3f74069e	0.953226
72	0xbffd6e98	-1.9799376
73	0xbffcf057	-1.9760846
74	0x3ff4b658	1.9118147
75	0xbf93bfb0	-1.1542873
76	0xbf3a3346	-0.7273449
77	0x3f8c231e	1.0948217
78	0x3f16a6f8	0.58848524
79	0x3f4bb44a	0.79571974
80	0x3fe5fe58	1.7968245
81	0xc011379f	-2.2690198
82	0x3f079f77	0.529777
83	0xbf77a10e	-0.96730125
84	0x400780c3	2.117234
85	0xbf753ed5	-0.95799
86	0xbf90d26e	-1.1314218
87	0xbf909e51	-1.1298314
88	0x3fd06eea	1.6283848
89	0x3ff32810	1.8996601
90	0xc00da3f8	-2.2131329
91	0xbf3a8c4d	-0.7287033
92	0xbfa1baad	-1.2635094
93	0xbfae0cb3	-1.3597625
94	0x3fec9062	1.8481562
95	0xbf917db8	-1.1366491
96	0x3fab95ab	1.340505
97	0x3f8483f5	1.035277
98	0x3fa41874	1.2819963
99	0x3faa2fdf	1.3295859
100	0x3f7d9cd9	0.99067456
101	0xbf5a60bd	-0.8530386
102	0xbfd32035	-1.6494204
103	0x3feb6896	1.8391292
104	0x3ffdf87d	1.9841458
105	0xbfc2195a	-1.5163987
106	0xbfb149d0	-1.3850651
107	0x3fba8e7d	1.4574734
108	0xbfc1b931	-1.5134641
109	0xbfd89ce5	-1.692288
110	0x3fe6cab3	1.8030609
111	0xbfbbd97b	-1.4675745
112	0x3fb59533	1.4186157
113	0x3fbfd18c	1.4985824
114	0x3fd93abb	1.6971048
115	0xbf71fb85	-0.94524413
116	0x3f902ebf	1.1264266
117	0xbff21698	-1.8913145
118	0xbff90651	-1.9455053
119	0x3fff2165	1.9932066
120	0xbfa1a9ef	-1.2629985
121	0xbf7ab56e	-0.9793309
122	0x3f7ef09c	0.9958589
123	0x3f4d4143	0.80177706
124	0x3f52ef56	0.8239645
125	0x3fcc0b60	1.5940971
126	0xbffe055a	-1.9845383
127	0x3f25643c	0.6460607
128	0xbf7b340e	-0.98126304
129	0x40002541	2.0022738
130	0xbf8d5572	-1.1041701
131	0xbfbd2784	-1.4777684
132	0xbf9c5f29	-1.221654
133	0x3fbe2ca0	1.4857368
134	0x3fd2cc6b	1.6468633
135	0xbfdf305c	-1.7436633
136	0xbf7d71e5	-0.99001914
137	0xbf9d791e	-1.2302587
138	0xbfc700f2	-1.5547163
139	0x3ff30c90	1.8988209
140	0xbf8b0270	-1.0860119
141	0x3fb6d153	1.4282631
142	0x3fa4d81e	1.2878454
143	0x3f8805e9	1.0626804
144	0x3fb8170a	1.4382031
145	0x3fa75bcb	1.3074888
146	0xbf8d80c8	-1.1054926
147	0xbfb1fa24	-1.3904462
148	0x40036a38	2.053358
149	0x3ff41b60	1.9070854
150	0xbfa2339e	-1.2672002
151	0xbfd137b0	-1.634512
152	0x3fb72881	1.4309236
153	0xbfa78cb1	-1.3089811
154	0xbfd012c9	-1.6255733
155	0x3fc7b5b5	1.5602328
156	0xbfc6c857	-1.5529889
157	0x3fc77ef4	1.5585618
158	0x3fc6b6a4	1.5524487
159	0x3f9cf529	1.2262317
160	0xbfa22993	-1.2668937
161	0x3f9164a0	1.1358833
162	0xbfef61d1	-1.8701726
163	0xbff432d3	-1.907801
164	0x3fdf65d5	1.7452952
165	0xbfbe3d54	-1.4862466
166	0xbf43dfdd	-0.76513463
167	0x3f62d44b	0.88605183
168	0x3f54f035	0.83179027
169	0x3f5f1fcb	0.8715789
170	0x3f9271f9	1.1441032
171	0xbfe6e0bd	-1.8037335
172	0x3f9156f2	1.1354659
173	0xbfa05ab3	-1.2527679
174	0x3ff5f27e	1.9214628
175	0xbf975c0a	-1.1824963
176	0xbfd28dc1	-1.644951
177	0xbfab86ed	-1.3400551
178	0x3fcb891d	1.5901219
179	0x3fb9824b	1.4492887
180	0xbfe3c383	-1.779404
181	0xbfaa2480	-1.3292389
182	0xbf8cab14	-1.0989709
183	0xbfb498eb	-1.4109167
184	0x3fdb2b08	1.7122507
185	0xbfba9f5c	-1.4579883
186	0x3fa13230	1.2593441
187	0x3fa6c3ac	1.3028464
188	0x3f82f293	1.0230278
189	0x3fa7fdb0	1.3124294
190	0x3fac42f6	1.3457935
191	0xbf9512f7	-1.1646413
192	0xbf5c5406	-0.8606571
193	0x3fec522a	1.8462574
194	0x3fea6ba0	1.8314095
195	0xbfa6fd00	-1.304596
196	0xbfdd0312	-1.7266562
197	0x3fbacef3	1.4594406
198	0xbf7ba750	-0.98302174
199	0xbfd3f4d2	-1.6559088
200	0x3fd3536f	1.6509837
201	0xbfbe0af9	-1.4847099
202	0x3ff9cd36	1.951575
203	0x3fcaa30e	1.583101
204	0x3fafa959	1.3723556
205	0xbfa4cf2d	-1.2875725
206	0x3f9730db	1.1811785
207	0xbfb4eb85	-1.4134375
208	0xbfe510b1	-1.7895719
209	0x3fe0fc54	1.7577004
210	0xbfd9d927	-1.7019395
211	0xbf7fae93	-0.99875754
212	0x3f65708f	0.89624876
213	0x3f949f34	1.1611085
214	0x3f96ceaa	1.1781819
215	0x3fadda38	1.358222
216	0xbfb46770	-1.4094067
217	0x3fb50585	1.414231
218	0xbfb4528d	-1.4087692
219	0x3fdd37a9	1.7282611
220	0xbf89de93	-1.0771049
221	0xbfc6adaa	-1.5521748
222	0xbfd32417	-1.6495389
223	0x3fa86cfa	1.3158257
224	0x3fa5f564	1.2965512
225	0xbfa8c281	-1.3184358
226	0xbfc73240	-1.556221
227	0xbfcba0c9	-1.5908443
228	0xbfd3ee0f	-1.6557025
229	0x3f8e566f	1.1120127
230	0xbfafad50	-1.3724766
231	0x3fb68be5	1.4261442
232	0x3f986662	1.1906245
233	0x3fb8de88	1.4442911
234	0x3fae70be	1.3628156
235	0x3f938224	1.1524091
236	0xbf95a9b4	-1.1692414
237	0xbf2fce6e	-0.6867436
238	0x4008c407	2.1369646
239	0x3fee9ec2	1.8642199
240	0xbf8d77ea	-1.105222
241	0xbfa6fe05	-1.3046271
242	0x3fbcfc22	1.4764445
243	0xbf8c1ac1	-1.0945665
244	0xbfaf3b1a	-1.3689911
245	0x3fa94179	1.3223106
246	0xbfe18dff	-1.7621459
247	0x3ff95109	1.9477855
248	0x3fcf8e90	1.6215382
249	0x3f9ced0f	1.2259845
250	0xbf996b14	-1.1985803
251	0x3f8fe8cc	1.1242919
252	0xbfcc460f	-1.595888
253	0xbfea0d3f	-1.8285292
254	0x3fe6f930	1.8044796
255	0xbfec4275	-1.8457781
